go2_description/config/legged_gym/policy.pt (torch, 768648 bytes, 8 tensors)

weight f4 [512, 45]
000000 f1 ab ea bd 4a 1c 5d 3c 29 b3 a4 be 1b 4d 14 3d
       -0.114585765 0.013495514 -0.32167938 0.036206346
000010 34 52 89 be 93 a8 d4 3d be 90 3a bf 1e a6 86 be
       -0.26820529 0.103837155 -0.7287711 -0.26298612
000020 5a 8c 71 3e e1 50 58 bd 8e bf 85 be 4a ac bf bc
       0.23588696 -0.052811507 -0.26122707 -0.023397584
000030 86 cd c2 3e ea f2 54 3e d8 19 6e be 33 4a 92 3e
       0.38047427 0.2079579 -0.23252046 0.28572235
000040 6d 42 04 3e e0 42 49 be 5e f7 10 bf d2 a3 64 bd
       0.12915964 -0.19654417 -0.5662745 -0.055820294
000050 b6 0d 03 3e 7d 4a 60 3e 5b f2 1d 3f a7 3c 4c 3e
       0.12798199 0.21903415 0.6169793 0.19945012
000060 4a 8e 33 3e 08 87 8e bd 4e d4 94 3c 14 54 0e 3b
       0.17534748 -0.06959349 0.018167641 0.0021717595
000070 6d 93 bd be 43 b5 13 bd 20 b2 85 3d 0d 2b e7 bc
       -0.3702654 -0.036061537 0.06528115 -0.02821877
000080 65 2b 88 3e 8f 41 6d bd 79 f7 18 3d 65 88 de 3d
       0.26595607 -0.05792385 0.037345383 0.10865859
000090 d1 01 b0 bd da 1c b3 bd 7d e2 88 3d 12 d2 ed bc
       -0.085940965 -0.087457374 0.06683824 -0.029030833
0000a0 81 da 0e bd ff 22 4c bc a0 b2 c9 3b e8 b1 db bc
       -0.03487635 -0.012459516 0.006155327 -0.02681823
0000b0 98 6c 36 bd 47 51 c5 3d 4a 2c 47 bd be b1 9c be
       -0.044537157 0.09634643 -0.04862622 -0.30604357
0000c0 56 0d c4 3e d4 3e 97 3e bd 41 61 3f f9 15 5d bd
       0.38291425 0.29540122 0.87990934 -0.053976033
0000d0 0f 33 71 be b9 bd 05 be 08 62 0f 3f 72 8c fe bd
       -0.23554634 -0.13060655 0.5600896 -0.124291316
0000e0 4c f4 b0 bc e5 1f ae 3e 98 39 d2 be 3a 1e b3 be
       -0.021600865 0.3400871 -0.41059566 -0.34984
0000f0 6d f3 bf be b4 46 6a 3e 84 02 1d 3d ed 54 a9 bd
       -0.37490407 0.22878534 0.038332477 -0.082681514
000100 3a f5 52 bd e6 45 87 3e 30 11 ac 3d 2f e2 8d 3c
       -0.051503398 0.26420516 0.08401716 0.017319767
000110 4c 07 f7 3d c4 04 85 3e 89 41 de be 00 c5 ca be
       0.12061939 0.25980198 -0.43409374 -0.39603424
000120 d8 06 5b 3e e1 ed f6 3d 74 c1 0a bf 43 4a 6d 3e
       0.2138933 0.120570906 -0.54201436 0.2317286
000130 b0 e5 a8 be 3b a7 f5 3e 2b 92 99 3c ec b9 3e 3c
       -0.32987738 0.4797915 0.018746456 0.011641007
000140 30 e3 4b bd c0 0f 9e 3b 75 c0 08 bd 85 12 2f 3d
       -0.04977721 0.004823655 -0.033386666 0.04274227
000150 4d dd 6f 3d e5 ed 93 3d a7 f2 2a bb 75 8f 15 3c
       0.05856066 0.07223109 -0.0026084573 0.009128441
000160 92 b4 48 3c 6a b6 a1 bc dd a1 82 bd 2a ee c6 bc
       0.012250083 -0.019740302 -0.06378529 -0.024283487
000170 bf 33 c4 bc 13 2e 3a be 79 49 8e be 02 b6 bf 3e
       -0.023950456 -0.18181638 -0.2779043 0.37443548
000180 78 d3 54 bd 2a 05 57 3d 28 fa 39 be 30 74 08 3f
       -0.051959485 0.05249516 -0.18161833 0.5330229
000190 4b d4 96 3d dc 74 7f 3e 37 c4 a0 be b7 c6 7b 3e
       0.073647104 0.24946922 -0.313997 0.24587522
0001a0 d0 92 33 3c da 5e 12 bf f8 74 8c be 99 65 59 bd
       0.010960296 -0.5717598 -0.2743299 -0.053075407
0001b0 c0 32 96 3e 9d 44 30 be cf 3d 87 bb ad ff 8a bd
       0.29335594 -0.17213674 -0.004127241 -0.067870475
0001c0 94 35 91 bd 99 cb cf be 18 39 0f be c7 69 15 be
       -0.07090297 -0.4058502 -0.13986623 -0.14591132
0001d0 f0 25 8b 3e a7 a4 96 be f4 70 1e bd 68 f6 9d 3e
       0.27177382 -0.29422495 -0.03868194 0.30852056
0001e0 c1 80 f7 bd 56 0e 3d 3e 24 c1 43 3e 05 54 ac bd
       -0.12085105 0.184625 0.19116646 -0.08414463
0001f0 a9 55 97 3c d1 66 e2 bc df f7 58 3d 0c 9e 8d 3c
       0.018473463 -0.027636917 0.052970763 0.017287277
000200 d1 f4 a2 bc d9 4e 33 3d f5 9c 9d 3c 96 52 fa bc
       -0.019892128 0.043776367 0.019239882 -0.030556958
000210 8c c9 13 bd 5b 05 e5 bc 44 36 bc bc 39 7d 34 3c
       -0.036080882 -0.027956655 -0.022975095 0.0110161835
000220 da ea a0 3d 1a e1 2e bd 6b 24 c6 bd 85 2c f9 bd
       0.078572944 -0.042695142 -0.09674915 -0.121666946
000230 a4 81 87 3c 50 04 e8 bc c5 8b b3 3c 6f 40 ac 3b
       0.01654131 -0.028322369 0.021917233 0.0052567045
000240 07 ef 1d bf 3b 18 a6 3c 71 86 d6 bb 9e 81 97 3e
       -0.6169285 0.020275226 -0.0065467884 0.29591078
000250 e8 7c 35 3d 2a 71 2c 3d d1 e3 fc 39 81 65 df bc
       0.044308573 0.04210011 0.00048234922 -0.02727008
000260 a6 b1 b3 3e 0b d0 0a 3f 58 57 00 bc 58 0e 9a 3e
       0.35096473 0.542237 -0.007833324 0.30089068
000270 de 5d 9f 3e 57 df 34 be c0 96 79 be e4 46 08 be
       0.31126302 -0.17663322 -0.24373913 -0.13308293
000280 69 f1 9a be 99 3b ee bd 5a f2 49 3d b7 90 91 bd
       -0.30262306 -0.11632461 0.04930339 -0.0710768
000290 4f b6 cc 3e 85 d8 b7 bd 33 f2 62 3e 34 31 bb 3e
       0.3998284 -0.08976845 0.22162704 0.36560977
0002a0 8c ba 2a 3d 83 38 89 bc e5 e7 ff bc b5 ff 1e bd
       0.04168181 -0.01675058 -0.031238506 -0.03881808
0002b0 ac a9 be 3c 48 8b 21 bd 26 07 ce bc 63 3b 76 3a
       0.023274265 -0.03943947 -0.025149893 0.00093930046
0002c0 07 13 8f bd d8 79 18 bc 64 1d a7 bc e9 49 a8 3b
       -0.06986051 -0.009306394 -0.020399757 0.005135764
0002d0 f4 ad e4 3d f9 97 96 bd cd f1 7e bd d1 0b ec 3e
       0.111659914 -0.07353205 -0.062242318 0.46102765
0002e0 eb c2 8a bd 82 0b c9 3e b6 d1 de be 68 f0 eb 3d
       -0.06775459 0.39266592 -0.43519372 0.11520463
0002f0 ce 96 92 bd 62 39 34 3e 89 94 8a be 69 c6 e8 bc
       -0.0715767 0.17600015 -0.27066448 -0.028414922
000300 cf 0e 15 3f d3 e5 ff bd 34 d3 d1 ba fc 4f 82 3d
       0.5822572 -0.12495007 -0.0016008378 0.06362912
000310 51 29 87 bd b1 db a7 3d 0c ee 55 3e 71 20 60 3e
       -0.06599677 0.081962 0.20891589 0.21887375
000320 98 65 2f 3e f3 fa 83 3e c5 10 3a 3e 4b 71 a8 be
       0.17128599 0.25777397 0.1817046 -0.32898936
000330 3c 00 f1 3e d5 1b ba bd 5f 12 a4 3d 43 60 2c 3e
       0.4707049 -0.0908734 0.080113165 0.16833596
000340 90 0c 01 3e 59 32 4d bc 87 72 6a 3b 60 eb d5 3d
       0.12602448 -0.012524211 0.003577383 0.10445285
000350 a2 82 2b bc 97 0c 02 3e b8 88 6d 3d c8 8f 91 bc
       -0.010468157 0.12700115 0.057991713 -0.017768756
000360 b3 bd 15 bd 1c 6a d4 bc bf b4 81 bc 73 03 28 3d
       -0.036557864 -0.025929503 -0.015833257 0.041018914
000370 44 8e 8d 3d 94 da ea bd bb 8f 71 3d 1b 1b 49 bd
       0.06911901 -0.11467472 0.058974963 -0.049098115
000380 58 7c ba 3c 0a e5 1f 3e 0b 47 d8 3c 0f 3e b4 3d
       0.02276437 0.15614715 0.026401063 0.08800899
000390 53 3a b4 be 00 bd e5 bc 14 a4 52 be 07 c0 a1 bd
       -0.35200748 -0.028044224 -0.20570403 -0.078979544
0003a0 cd c3 c5 3b 7f fd 6a 3e 55 58 4d bd 50 29 ea bc
       0.006035304 0.22948264 -0.050133068 -0.028584152
0003b0 61 85 35 be 8b 49 11 3e 21 e0 96 3e fe 4f d7 3c
       -0.17726661 0.1418821 0.29467872 0.02628326
0003c0 20 1e b7 3d b8 2d 42 be 24 3f df 3e 89 3b c5 be
       0.08941293 -0.18962753 0.4360286 -0.38521984
0003d0 de c4 7f 3e ba e8 b4 be 57 b3 86 bf 7c 82 12 3e
       0.24977443 -0.35333806 -1.052348 0.14307588
0003e0 20 2b 54 be 64 ee a4 3d 0a 5f 70 be bd ce 02 be
       -0.20719576 0.08053282 -0.23473755 -0.12774177
0003f0 cb d1 9f 3e 83 42 84 bc 4f c1 09 3e c8 23 1e 3e
       0.31214747 -0.016144997 0.13452648 0.15443337

bias f4 [512]
000000 a7 56 c5 3d 9e 11 d0 3c 8a a7 3b be 60 64 18 be
       0.09635668 0.025399026 -0.1832563 -0.1488204
000010 98 6a 7c be 7e 2d 72 bc 0b 4f 33 bd c3 61 51 3e
       -0.24650037 -0.014781354 -0.043776553 0.2044745
000020 64 f0 de bd 26 ea 55 be 86 3d 57 3e f8 d0 cd bd
       -0.108856946 -0.20890102 0.21019563 -0.10049623
000030 ff 55 80 3d 4f ac 58 3d 07 4a db bd cc 19 65 3e
       0.062664025 0.0528987 -0.10707479 0.22373122
000040 97 94 7e 3d e0 d3 3f be 24 3e 4b 3d 9a 0d c6 3d
       0.062153425 -0.18733168 0.04961981 0.09670563
000050 18 b8 bc 3d dc 38 b2 bc 11 d3 23 3e 0a 9f d5 3c
       0.092148006 -0.021755628 0.15998484 0.026076812
000060 04 76 96 bc 68 9b 67 be d7 71 fb bd f1 d6 1e 3e
       -0.018366821 -0.22617877 -0.122775726 0.15511681
000070 ee 14 02 be 7e 77 3d 3d da 0c 2d 3e 71 f4 f4 bd
       -0.12703297 0.046256535 0.16899434 -0.11960686
000080 04 df 88 be 41 bc 0b 3e 8f 97 5f be e7 1e 2d 3e
       -0.26732647 0.13646032 -0.21835159 0.1690632
000090 d4 0e c9 3d ff 39 02 3e 92 ef 83 3d d9 58 0d bc
       0.09817281 0.12717436 0.06442179 -0.00862714
0000a0 2a c8 34 be 0a fc 21 be 6e ae 43 be e2 c7 21 be
       -0.17654482 -0.15818802 -0.19109508 -0.15798905
0000b0 e7 60 6b 3e dd fe 00 3e 6b b0 cb 3b a7 d4 dd bc
       0.22986184 0.12597223 0.006216099 -0.02707894
0000c0 8a 2c ce bd ae 21 22 3e 2a 15 35 3d 91 8f 3b 3e
       -0.10067089 0.1583316 0.044209637 0.18316485
0000d0 04 12 3e be dd c9 14 3d a9 18 90 3e 77 5c aa 3d
       -0.1856156 0.036325324 0.28143814 0.083184175
0000e0 d1 6c 69 3d 84 a6 6c bd 2e 21 24 be ba 8c 0b be
       0.05698854 -0.05777599 -0.16028282 -0.13627902
0000f0 28 dd 84 3d 7a 4f 2c 3e 0f 87 6f 3e 80 67 b9 3d
       0.06487495 0.16827193 0.23391365 0.09052944
000100 2a ee 50 ba 98 3c dc bd 4a b5 4b be 9a be 52 bd
       -0.00079700595 -0.10753745 -0.19893375 -0.051451303
000110 2a 43 86 bc 63 b4 c4 bd 22 0f cf 3d 7e 45 53 3c
       -0.016389448 -0.096047185 0.10110308 0.012894986
000120 99 ea 54 be 37 c0 1b be b9 d7 16 be 44 31 66 be
       -0.20792617 -0.15210043 -0.14730729 -0.22479731
000130 a1 95 00 3d b9 7b 6e bd 84 9c 89 be d9 0b 45 3e
       0.031392697 -0.05822346 -0.26877224 0.19242801
000140 eb 8d d2 3d 79 86 89 bd 9a 16 86 3e 74 b7 32 be
       0.10280975 -0.06715102 0.2618912 -0.17452794
000150 c1 bc 8c bd d3 6a 54 be 32 c0 53 3e 3e 0b 40 be
       -0.068719395 -0.20743875 0.20678785 -0.18754289
000160 db 81 d9 3d fa 2c 8d bd ab 41 21 3d 95 88 bf bd
       0.10620471 -0.06893344 0.039369266 -0.09352223
000170 1b d5 e6 3d 0a 34 81 bd 82 4f 06 3d ef cc ae 3d
       0.112711154 -0.06308754 0.03279067 0.08535182
000180 9e ff 60 be f8 e8 a9 bd 82 b0 1a be 17 13 41 be
       -0.2197251 -0.082963884 -0.15106395 -0.18854938
000190 9c 29 1a 3e a2 10 26 3e 14 5f c3 3d 65 89 80 3e
       0.15054935 0.16217282 0.09539619 0.25104824
0001a0 76 81 ed 3d 8e 58 d2 bd 48 71 71 3e 61 eb 60 3e
       0.11596958 -0.10270797 0.2357837 0.2196479
0001b0 da 3e 81 3e 02 b8 86 3e e6 75 b6 bd 3a 8a 44 be
       0.25243264 0.26312262 -0.08909206 -0.19193354
0001c0 42 09 e0 bb bf 77 38 3e 95 99 75 be bc e8 6e 3d
       -0.006837041 0.1801443 -0.23984368 0.05832742
0001d0 c3 9b 93 3d df 3f 05 3e e7 ad 5b be 3e 7e 91 3d
       0.072074436 0.13012646 -0.21453057 0.07104157
0001e0 8c 40 2f 3c c7 43 18 3e b4 e3 38 3e ab 48 a5 3d
       0.0106965415 0.14869605 0.18055612 0.08070501
0001f0 e1 22 21 3e b2 dc 90 3d 26 71 f5 3c 7e 08 bc be
       0.15735961 0.07073344 0.02996118 -0.3672523
000200 e8 95 3e 3e 75 48 9c be 8d 56 92 be 6b b3 0a bc
       0.18611872 -0.3052403 -0.28581658 -0.008465628
000210 fb eb 6a 3c 32 8b 7b bc 54 11 4c 3e c3 b3 45 3e
       0.014338489 -0.015353011 0.19928485 0.19306855
000220 7f 92 fb bb 54 cb 7e bd 95 23 36 be 31 1f 32 be
       -0.007677376 -0.062205628 -0.17787011 -0.17394711
000230 65 96 8a be ed 60 0c be 43 40 87 be c7 82 93 bd
       -0.27067867 -0.13708849 -0.26416215 -0.07202678
000240 cc 34 80 3e 95 07 85 bd 5f 59 0d be a1 cd 93 bd
       0.2504028 -0.06495587 -0.13803624 -0.07216955
000250 80 2f 59 3e 02 59 e9 bd 5c 06 ca bd 01 47 5f be
       0.21209526 -0.1139393 -0.09864494 -0.2180443
000260 00 52 19 be 6a 0d 3c 3d 9a 24 84 3d 9b 2d 25 be
       -0.14972687 0.04591123 0.06452294 -0.16130678
000270 2e c1 74 be 26 d8 cd bc 4d 33 04 bd 17 79 b2 3c
       -0.23901817 -0.025127482 -0.032275487 0.021786256
000280 ba 34 8c be 03 28 d9 bd e3 e0 64 bd b1 98 74 3e
       -0.27383977 -0.10603335 -0.05587853 0.23886372
000290 3b ee 36 be e5 de 72 3c e6 f5 57 be c1 19 d2 3c
       -0.17864315 0.01482365 -0.21089897 0.025647046
0002a0 22 73 31 bc f8 99 67 3e 94 74 8e be 04 83 cc bd
       -0.010830672 0.22617328 -0.27823317 -0.09985927
0002b0 05 e0 6d be e1 3a 76 bb bb e5 47 3e b7 cd a7 3c
       -0.23229988 -0.0037571716 0.19521229 0.020483835
0002c0 d2 7c 56 3d b7 ea 72 3e 87 7c b4 3d ba ea 0c 3e
       0.05236513 0.23722349 0.08812814 0.13761416
0002d0 d6 45 e5 3d 5d 50 21 be d5 12 7e 3d 34 14 aa be
       0.11194961 -0.15753312 0.06202968 -0.3321854
0002e0 18 da 6d be c4 7e cc be 3e a7 04 3e 40 14 2c bc
       -0.23227727 -0.39940464 0.12954423 -0.010502875
0002f0 55 82 8e 3e 25 1d 1c be fc 7a 8e be bc 16 ce 3b
       0.2783381 -0.15245493 -0.27828205 0.0062893312
000300 e6 14 49 3e fc 34 b8 3d 28 4e 77 be 19 41 a3 be
       0.19636878 0.08994481 -0.24150908 -0.31885603
000310 26 c5 55 3e 2d 30 e3 3d 14 04 e9 3b 7e bb 44 be
       0.20875987 0.11093173 0.007111082 -0.19212148
000320 d6 77 5b 3d e2 95 bb 3d 56 57 b7 3d d3 58 0f 3e
       0.05358108 0.09159447 0.08952205 0.13998728
000330 34 a1 45 be 56 25 21 be d7 90 09 3d 0a 91 2c bc
       -0.19299775 -0.15736899 0.033585396 -0.010532627
000340 26 3a e1 3d fb fd 1e be fe b6 55 be 3a 79 3c 3d
       0.10997419 -0.15526573 -0.20870587 0.04601405
000350 12 75 35 3e 6d 8b 92 3e f2 22 2e be 57 00 86 be
       0.1772044 0.28621998 -0.17005518 -0.26172134
000360 16 77 78 3e 9e 7e d6 3d b2 c1 87 3d 82 91 d7 bd
       0.24264178 0.10473369 0.06628741 -0.105258
000370 31 4f f8 3d 19 bd 3f 3e 97 bb 78 be 7d 5d 8f 3d
       0.121244796 0.18724479 -0.2429031 0.07000253
000380 de 7e 82 3d e2 89 6b be 75 fe 53 bd 44 77 f2 3d
       0.06371854 -0.23001817 -0.05175634 0.11839154
000390 46 fe c2 be 6f e4 62 be b7 37 c5 3c 43 33 c3 3d
       -0.3808462 -0.22157453 0.024074418 0.09531262
0003a0 37 06 a5 be 18 b9 0a be 1f 2b 65 3e 96 01 bc be
       -0.32231304 -0.1354717 0.2237973 -0.3671996
0003b0 09 09 6b 3e 7c 9c 27 be 83 87 6c 3d ce 88 da bc
       0.22952665 -0.16368288 0.05774642 -0.026676562
0003c0 c9 b3 d2 3d 85 c7 7a be 81 98 d5 3c 1f 75 1f bd
       0.102881975 -0.24490173 0.026073696 -0.038930055
0003d0 c9 60 0c 3e 30 cb 2e be 2e 7b 8f be 74 e1 92 be
       0.13708796 -0.17069697 -0.28023666 -0.28687632
0003e0 70 b7 71 3e 51 19 0b bd 79 db 4b be 7e d1 92 3d
       0.23605132 -0.03395969 -0.19907941 0.07168864
0003f0 83 9a 11 3e cd 75 82 3d 9b 90 c5 bd c2 55 2a bd
       0.14219098 0.06370125 -0.09646722 -0.04158569

weight f4 [256, 512]
000000 62 56 f4 bc 2d c6 0b 3e e1 45 1e be cf 60 55 bd
       -0.029826347 0.13649817 -0.15456344 -0.052094277
000010 a4 6a 95 3e df 0d 4c 3e ff c1 0e 3e 29 df dc 3b
       0.29182923 0.19927166 0.13941191 0.00674047
000020 f2 fb a1 3c 25 10 e4 3d c5 5c 66 bc b2 63 ff 3d
       0.019773457 0.11135892 -0.014060204 0.12470187
000030 b7 05 95 bd 44 8e 00 3e b5 de ff 3d 1c 82 cc bd
       -0.07276481 0.1255427 0.1249365 -0.09985754
000040 ed 23 39 3d cf c1 88 3e 63 a8 1f 3d e3 bf 4b 3d
       0.045200277 0.26710364 0.038978945 0.049743544
000050 40 38 24 bd 7f 14 c5 bd af df 42 3b 59 21 36 3d
       -0.040092707 -0.0962305 0.0029735377 0.044465397
000060 ed 4b 42 be c9 f7 cb 3d f1 17 02 3e 6c 0a 8b 3e
       -0.18974276 0.09959371 0.12704445 0.2715639
000070 70 13 31 3d f5 dc 59 bd 14 4d de bd a7 a3 8b bd
       0.043231428 -0.053189237 -0.10854545 -0.068183236
000080 92 c8 aa bc be 6f e6 bc 93 6a ff bd 98 dc 95 3e
       -0.020847593 -0.028129455 -0.12471499 0.29269862
000090 0f 90 b4 bd 59 96 d5 bd 0d bc b2 bd 72 9e c6 3d
       -0.088165395 -0.10429067 -0.08727274 0.0969819
0000a0 d1 c3 03 bd fb 9d 6f bd 71 44 94 3e 46 4a 8f bc
       -0.032169167 -0.05850027 0.28958467 -0.017491471
0000b0 82 c6 d3 3d 98 5b aa bc 2a 3a f9 3d f8 a7 c7 3d
       0.10340597 -0.020795628 0.12169297 0.09748834
0000c0 84 fa 81 3d 9a ad 33 be ef 69 84 3e f5 36 00 3d
       0.0634661 -0.17546692 0.2586207 0.03130241
0000d0 3a 67 ef 3d a0 44 f4 3d f2 ca 7b be 0d 99 86 3d
       0.11689611 0.11927152 -0.24589136 0.06572161
0000e0 73 47 13 3e 60 be 15 bd dd 86 03 3e e5 3e a6 3d
       0.14382724 -0.03655851 0.12844415 0.08117465
0000f0 3c 62 9c bd 9d cb 21 bb 28 62 8e bd b6 5c c8 bc
       -0.07635924 -0.0024688013 -0.069523156 -0.02445827
000100 1d d2 65 3d 40 9f 39 ba 88 e9 bd 3d a9 d5 4d 3d
       0.056108583 -0.000708092 0.09273058 0.05025259
000110 fa b0 9c 3e 3a 57 7a 3e 5a c5 ae bd 56 b5 ad be
       0.30603772 0.24447337 -0.085337356 -0.3392741
000120 22 15 08 3e 1c 83 f6 3d a1 e1 bb bd dd d4 2f 3e
       0.13289312 0.12036726 -0.09173895 0.17171045
000130 32 d3 24 be 9b 13 79 3d 5f 7b 01 3e 6e 25 bf bc
       -0.1609619 0.060809713 0.12644719 -0.023333278
000140 07 46 97 bd df ef 1a bd dd a3 b5 bd 3f ec 8f 3d
       -0.073864035 -0.037826415 -0.08869145 0.07027482
000150 0e d1 ac 3e 7a 5f 51 ba 53 6f a8 3d 4a 6d a1 3e
       0.33753246 -0.00079869444 0.082243584 0.31528693
000160 cf a2 8d bd 4d c1 11 be 74 ea 0a be 56 4c c7 3d
       -0.06915819 -0.14233895 -0.13566 0.09731357
000170 88 a8 18 3e f4 06 a1 bd 64 81 8b bd ad 25 b4 3d
       0.1490804 -0.07862654 -0.06811789 0.087962486
000180 2f 35 75 3d 39 ae 33 bc 54 69 5a 3e 01 d3 00 3e
       0.059865173 -0.010966831 0.21329242 0.12580492
000190 fa 4f 1a 3e b4 f4 05 be 56 ff db 3c 6d 33 0d be
       0.15069571 -0.13081628 0.026855152 -0.13789149
0001a0 ff fd e7 bd 0b 52 b7 bd b7 90 32 be 41 af 07 be
       -0.11327743 -0.08951195 -0.17438017 -0.13250448
0001b0 c4 ab 87 be ce 51 13 bd 28 f8 db 3e 25 42 fd 3d
       -0.26498234 -0.035966687 0.42962766 0.12366132
0001c0 45 03 40 be 97 cd ed 3b 07 74 31 3e ac 60 f5 3c
       -0.18751247 0.0072571742 0.17329417 0.029953323
0001d0 ed 4d 49 3e 51 07 2f 3e 07 6b 02 3d 2a 94 1a 3e
       0.19658633 0.17092635 0.03184035 0.15095583
0001e0 cb 6d 38 bd 79 53 c0 bd 52 fb 4e 3e b0 64 00 be
       -0.04502658 -0.09390921 0.20213059 -0.12538409
0001f0 fd 5f ce bd e8 62 44 3c 1f 69 4d 3e 9f 65 ff 3c
       -0.10076902 0.011986472 0.20059632 0.031176386
000200 9f 95 4d bd ee 22 5c 3e 8b a1 82 bc c7 1e 43 bb
       -0.050191518 0.214977 -0.01594617 -0.0029772983
000210 6b 3c 7f b9 f3 7b 7f bd 01 b9 9a bd d4 93 8b be
       -0.00024341203 -0.062374067 -0.07554818 -0.2726122
000220 08 aa 70 3e 06 ce 3c 3e 31 ed 3f 3d 40 b7 0f bd
       0.23502362 0.18437967 0.046857063 -0.03508687
000230 20 4c 70 3e 3b fd 4e be fd 67 cc 3e f4 19 5a 3d
       0.2346654 -0.20213787 0.39923087 0.053247407
000240 8b e8 37 3d 16 4d 17 3b a3 30 bb bb 37 a1 f0 bd
       0.044899505 0.0023086718 -0.005712585 -0.11749499
000250 31 a9 94 be 3d e3 30 3e 2b 5b 2b 3e d0 f9 77 ba
       -0.29035333 0.17274185 0.16733997 -0.0009459527
000260 f7 a7 d0 bd 0b a0 6a 3d f9 60 cf ba 6f b0 27 3d
       -0.10188287 0.057281535 -0.0015821747 0.040939745
000270 40 bd 0e 3c 3c 95 44 3e ba fc 90 3e 69 2d 8c bd
       0.008712113 0.19197553 0.28317815 -0.06844599
000280 ab d6 15 be 75 1b 31 3e c8 26 18 3e 06 01 8c be
       -0.1463267 0.1729563 0.14858544 -0.2734453
000290 14 75 3f 3e 19 df db 3c 02 10 cd bd dc 92 d4 3e
       0.18697006 0.02683978 -0.10012819 0.41518295
0002a0 a0 12 af bd 48 c8 bb bc 3a f3 49 bd 26 e8 10 3d
       -0.08548474 -0.02292265 -0.049304225 0.035377644
0002b0 df 3a b0 3b 0c ac 5c 3d 1e e4 c0 bc 61 54 9e bc
       0.0053781117 0.053875014 -0.023546275 -0.019327344
0002c0 87 08 1e be 5d 7c 89 bd 47 dd cb bc c8 8c 16 be
       -0.1543294 -0.067131735 -0.024885787 -0.14702141
0002d0 c5 81 2e bd 1c 3f 18 be 63 af e9 3d 6c bf 14 3e
       -0.042604227 -0.14867824 0.114104055 0.14526147
0002e0 d4 55 16 bd c7 79 8f 3d ad 8b f0 3c aa 6f 27 bd
       -0.036702946 0.07005649 0.029363478 -0.040877976
0002f0 7b e9 04 3e 4a b3 d0 3d 8e 65 0b 3e d4 31 88 3d
       0.1297969 0.10190447 0.13612959 0.06650129
000300 ac a9 92 be 4a 67 09 bd e9 1b 53 3c 5d 06 22 3c
       -0.28645074 -0.03354577 0.012885072 0.009889212
000310 aa 5f a1 bd b6 c1 63 bd 3d 0f ab 3d 52 68 ae 3e
       -0.078795746 -0.05560466 0.08352516 0.34063965
000320 74 15 46 3b 9c 69 43 bc 6b cd 25 be ea 9e fc bc
       0.003022519 -0.011927035 -0.16191642 -0.030837495
000330 88 60 1e 3e c5 a9 18 bd 2e 3d c6 3e a2 d4 9b 3d
       0.15466511 -0.03727128 0.3871855 0.07608916
000340 20 c8 45 bc d3 d0 b5 3d db ac 4a 3a 0f 41 87 3c
       -0.012071639 0.08877721 0.0007731446 0.016510515
000350 53 a0 b4 3c 5b d3 b1 bd 2a 38 a8 3e 01 ec 17 3e
       0.022049105 -0.08682891 0.3285535 0.14836122
000360 37 69 f4 3d 9f b9 56 bd ac 39 b6 3d 2d f1 a2 3c
       0.11934131 -0.052423116 0.08897719 0.019890392
000370 94 ca ef 3d 0b 23 d0 bd 79 a2 75 3e 40 e2 fd 3c
       0.117085606 -0.10162934 0.2398776 0.030991673
000380 fc 56 78 3a ba aa 18 be ac 35 67 3a 92 cf 0f bd
       0.0009473411 -0.14908877 0.00088199484 -0.035110064
000390 cc de ba 3d 6f e2 54 bd 37 89 7b 3d e4 28 05 bd
       0.091245264 -0.051973756 0.061410155 -0.0325097
0003a0 56 37 e3 3d 21 e5 0b be 42 be dd 3d 6a 3a 04 3e
       0.11094539 -0.13661624 0.108273044 0.12912908
0003b0 b4 c7 7f be 76 1d eb bc 97 eb 49 be ec 9e d5 3d
       -0.24978524 -0.028700572 -0.19718777 0.104307026
0003c0 f8 95 20 be 78 9a 53 3e f0 9c 96 bd 70 9a 63 3d
       -0.15682209 0.20664394 -0.07354152 0.055567205
0003d0 9a 0a 4e be 80 7b 5b 3e ea ff 38 3e de 30 b6 3c
       -0.20121232 0.2143383 0.18066373 0.022240099
0003e0 56 b4 7c 3d a5 19 80 bc ae cd 82 3d 20 17 2d 3b
       0.06169542 -0.015637228 0.063868865 0.0026411489
0003f0 58 f1 e9 bd 80 21 40 3e 59 28 07 bd 06 c6 1a be
       -0.11422986 0.18762779 -0.032997463 -0.15114602

bias f4 [256]
000000 a2 2a bb bc cc 4a fa bd fa 81 78 bd 66 50 f1 bd
       -0.022847477 -0.122212976 -0.06067083 -0.11782913
000010 b6 21 e3 bd b9 ed a3 bd a4 df fc bd ee 1e 99 3d
       -0.11090414 -0.080043264 -0.123473436 0.074766025
000020 d9 49 54 bd 7b 69 cc bd 52 4f 39 be 86 9d f2 bd
       -0.05182824 -0.09981056 -0.18096665 -0.118464515
000030 7d e2 02 be ed 5f b1 bd 0c 3d bb bc 68 3d 89 ba
       -0.12781711 -0.086608745 -0.022856258 -0.0010470571
000040 2d fc 0d be b9 83 ac bd 5d e3 05 be 84 8b 25 be
       -0.13865729 -0.084235616 -0.13075013 -0.16166502
000050 94 99 63 be 2a 22 25 be 7e 57 d4 bd a2 38 23 be
       -0.22226554 -0.16126314 -0.1036825 -0.15939572
000060 63 80 ca bd c0 2c df 3c 4b a5 d5 bd 6c 33 fc bd
       -0.09887769 0.027243018 -0.10431918 -0.123144954
000070 a4 2e 53 be ce 3a f2 bc 9f 88 ce bd 63 7f 00 be
       -0.2062326 -0.029569056 -0.10084652 -0.12548594
000080 69 67 0d 3d b9 e4 7f be c6 bc d6 bd 31 3c 81 3d
       0.034522448 -0.24989595 -0.104852244 0.06310309
000090 5b 62 0c be 75 f9 b8 bd 46 70 74 be be 35 12 3a
       -0.13709395 -0.09031955 -0.23870954 0.0005577466
0000a0 00 4c af bd 51 86 14 be 41 1f 88 be 3a 58 86 be
       -0.08559418 -0.14504363 -0.26586345 -0.26239187
0000b0 c4 99 15 bd 2b 3c b7 bb f0 4f 86 bc 87 b6 12 be
       -0.036523595 -0.0055918894 -0.016395539 -0.14327441
0000c0 97 b2 6b bd 64 52 ba bc f3 37 97 bd 5f 96 e1 bd
       -0.057543363 -0.022744365 -0.07383718 -0.11015009
0000d0 58 c5 52 bd 7a 80 46 be dd bf 57 bd 44 1e 4d be
       -0.051457733 -0.19384947 -0.05267321 -0.20031077
0000e0 4e 1d a2 be 27 30 48 bd ec df b7 be 22 f0 38 be
       -0.31662983 -0.048874047 -0.35913026 -0.18060353
0000f0 c6 de be bd 92 e2 86 3c 26 d2 35 be b4 77 7b be
       -0.093198344 0.016465459 -0.17755947 -0.24557382
000100 f9 32 27 be 0a de 6f be 78 90 af bd 87 da 35 be
       -0.16328038 -0.23424545 -0.08572477 -0.17759143
000110 61 f8 43 be 18 e8 8b bd 1c ee 87 bd a9 f2 25 bd
       -0.19137718 -0.06831378 -0.06637213 -0.040514622
000120 01 f4 de bd fa b4 72 be ad c2 40 bd b6 a3 c5 bd
       -0.10886384 -0.2370185 -0.047060657 -0.09650366
000130 fc 14 e8 bd 98 d9 19 be cb 8e 67 bd 6c a8 98 be
       -0.113321275 -0.15024412 -0.056532662 -0.29815996
000140 82 35 43 be f7 89 d8 bd 13 6e 3f be a5 37 e3 3c
       -0.1906338 -0.1057319 -0.18694334 0.027736494
000150 63 70 f1 bc 2e 74 43 bd a4 de 18 be b5 c0 12 be
       -0.029472535 -0.04771822 -0.1492868 -0.14331324
000160 aa 72 01 be 31 a3 ad bd dc 4b cc bd 53 93 82 bd
       -0.12641397 -0.08478392 -0.099754065 -0.06375756
000170 72 13 cf bd d1 b6 53 bd c0 ff 67 bb 3c 28 67 bb
       -0.10111131 -0.05168802 -0.0035400242 -0.0035271784
000180 e9 2b 3f be a2 a7 7f bd 49 c4 20 bd 0d 09 a4 bd
       -0.18669094 -0.062415726 -0.039249692 -0.08009539
000190 c8 95 16 bd b7 f2 81 bd 06 92 87 be 2b 3e 1b bd
       -0.036763936 -0.06345122 -0.26478595 -0.037901085
0001a0 49 d9 16 be 61 8f b8 bd 8d 18 0f 3d ff 0d 59 bd
       -0.14731325 -0.09011722 0.034935523 -0.052991863
0001b0 f0 f7 12 be 0e 94 b2 3d d9 85 03 be 16 87 84 bd
       -0.14352393 0.087196454 -0.12844028 -0.06471078
0001c0 77 a4 6e be 63 88 bf be 3d 8c 11 be 06 f6 15 be
       -0.23304926 -0.37408742 -0.14213653 -0.14644632
0001d0 bf 1b 27 be 4c 47 d5 bc 97 8b 09 bc 41 e7 fe bd
       -0.16319178 -0.026034974 -0.008395097 -0.12446452
0001e0 28 be a1 be f7 6b e3 bd e1 05 f8 bd d9 b6 62 be
       -0.3159039 -0.11104577 -0.12110496 -0.22140063
0001f0 bd 0b 64 bc c7 97 d7 bc 55 bf 8d bd f2 dc 08 bd
       -0.013918814 -0.02631749 -0.06921259 -0.033413835
000200 11 75 cb bd 1b 55 11 be f5 6e c6 bb 3a b1 1a be
       -0.09934438 -0.14192621 -0.0060557076 -0.15106669
000210 73 25 dc bd 49 70 25 be 76 7e 22 be a6 ed 89 3a
       -0.1074933 -0.16156115 -0.15868554 0.0010523095
000220 8a d1 3c be e0 40 72 be 93 06 9f bd 9a 0c 0a be
       -0.18439308 -0.2365756 -0.07764926 -0.1348137
000230 44 34 be bd 9e 81 68 bd 49 1b e2 bd ee d0 73 bc
       -0.092873126 -0.056764238 -0.110403605 -0.014881356
000240 7b be 76 be 59 7b 1c be c9 37 bd bd 18 c9 a6 bc
       -0.240961 -0.15281428 -0.09239156 -0.02035956
000250 ea 32 11 be 23 60 58 be 98 9a 2c be 24 8e 6b 3d
       -0.14179578 -0.21130423 -0.16855848 0.057508603
000260 d0 ca b4 bc 2b 76 fb bc 78 fe 99 3d 7d 9c 85 bc
       -0.022069365 -0.030695995 0.07519239 -0.016309971
000270 fe fa 80 be c9 01 0c be 6c 2f 40 be 98 ea 17 be
       -0.25191492 -0.13672556 -0.1876809 -0.14835584
000280 d0 e7 0d be 94 23 5c be 7d b9 2c 3c fc 15 d6 bd
       -0.1385796 -0.21497947 0.010542271 -0.10453412
000290 66 30 bf be 46 5b 70 be 14 5b 84 be 7c a7 2e be
       -0.37341613 -0.23472318 -0.25850737 -0.17056078
0002a0 c2 80 91 bd 25 66 a3 3c 2a 57 d7 bb c7 1f e6 bd
       -0.07104637 0.019946167 -0.00657167 -0.1123653
0002b0 83 57 64 be eb 6c d0 bd 27 24 01 be fc 03 30 be
       -0.22299008 -0.101770245 -0.12611447 -0.1718902
0002c0 c8 5b f5 bd 2d f5 19 be 06 8d f3 bd 22 02 96 bd
       -0.119803965 -0.15034933 -0.118921325 -0.073246256
0002d0 9d 32 4c be 19 dd 2f be 07 b0 fb bc bc 97 75 bd
       -0.19941182 -0.17174186 -0.030723585 -0.05995916
0002e0 9b da 8f bd f1 83 3a be 13 6b 49 be d4 a7 26 be
       -0.070241176 -0.18214394 -0.19669752 -0.16274959
0002f0 da b2 09 bb a6 ac f1 bd 8a 6a c2 be f3 34 a4 bd
       -0.0021011145 -0.11800508 -0.37971908 -0.08017912
000300 2d 67 57 be 3c 63 12 be 75 2f e8 bd 28 30 57 be
       -0.21035452 -0.14295667 -0.11337177 -0.21014464
000310 71 a6 72 be 72 70 ab be f5 10 95 bd 53 5a 5f be
       -0.23696305 -0.33484226 -0.07278625 -0.218118
000320 77 2d 31 3c b7 65 0b bd 11 3d 36 be fa c6 af bd
       0.010814062 -0.03403255 -0.17796732 -0.08582874
000330 64 5a 9a bc 29 b1 e4 3d 05 2a 5c be bf 24 20 be
       -0.01884193 0.11166603 -0.21500404 -0.15639018
000340 66 7c ee bd 3c 93 bd bc a2 e6 38 be 1a a4 25 be
       -0.11644821 -0.023141496 -0.1805673 -0.16175881
000350 bd d0 fa bd 58 d3 34 bd 83 af 27 bd a5 8e 70 bd
       -0.12246845 -0.044146866 -0.040938865 -0.058729786
000360 04 6a 26 be e2 12 49 be 34 57 6a bd 12 33 a9 3d
       -0.16251379 -0.1963611 -0.05721207 0.08261694
000370 78 97 79 be 56 5b 47 be 27 5b 4b be ee 1d 0f be
       -0.24374187 -0.19468436 -0.1985899 -0.13976261
000380 19 58 6e be 0b 61 72 be 01 7e ca bd 93 c6 00 be
       -0.23275794 -0.23669831 -0.098873146 -0.1257575
000390 63 ce 76 bd ef aa 0d 3d 16 b2 1b be 39 ca 6c be
       -0.06025542 0.034586843 -0.15204653 -0.23124017
0003a0 28 2f 2a be 76 f0 54 be 32 22 63 bd 09 a7 98 bd
       -0.16619551 -0.20794854 -0.055452533 -0.074537344
0003b0 26 eb d9 bd 70 e8 dd bd 40 a7 79 be a5 b0 3a be
       -0.10640554 -0.108353496 -0.24380207 -0.18231447
0003c0 b1 6a 8b bd af b0 0b be 0a 8b b6 be e7 d9 ba bd
       -0.06807459 -0.13641618 -0.35652953 -0.09123593
0003d0 fc 5a 12 bd cd 8d 79 be 9e 8c 4e bb a8 d1 03 be
       -0.0357313 -0.24370499 -0.003151692 -0.12872946
0003e0 ad ff 3b be 9c 24 b6 3c 0e 85 1f be 9d 42 5d be
       -0.18359251 0.022234254 -0.155781 -0.21607442
0003f0 70 85 b6 be 0c 14 54 be 65 6e 47 be 0c e1 14 be
       -0.3564868 -0.20710772 -0.19475706 -0.14538974

weight f4 [128, 256]
000000 82 a6 1d be d0 18 ca 3d e5 2e 07 be 0a 32 a8 3d
       -0.15395549 0.09868014 -0.13201483 0.08212669
000010 17 1c 82 3d ce bf 48 bd 33 80 9e 3d 3d 1e e1 bd
       0.06353014 -0.049011044 0.07739296 -0.109920956
000020 b9 03 58 bd 41 f7 0d bb 4a 2a 35 3e cf 4d 43 3e
       -0.052737925 -0.0021662267 0.17691913 0.1907265
000030 e9 b6 34 3e cd de 9e be d9 26 91 3d 4e 55 1c 3e
       0.176479 -0.31029359 0.07087488 0.15266916
000040 1f b1 c8 bc 08 96 27 be 62 60 19 3d 20 32 49 3e
       -0.02449852 -0.16365826 0.037445433 0.19648027
000050 25 35 7e bc f5 bc aa bd cb 01 96 bb d3 08 d5 3d
       -0.0155156 -0.08336822 -0.0045778505 0.10402074
000060 d3 a0 35 3e 79 e4 af 3d c9 eb 7a bd c3 5c 99 3c
       0.17737131 0.085884996 -0.06126002 0.01872099
000070 1b d1 1e bd 52 da 0a be 06 49 52 3d 14 d4 8f be
       -0.038773637 -0.13559845 0.05133917 -0.2809149
000080 3f 9c 14 be 58 7c 1d bc a8 be 1d be 47 17 69 3d
       -0.14512728 -0.009612165 -0.15404761 0.056906965
000090 7d 2d 54 3e f8 b9 8b bc 12 fe 8f bd 32 aa 9f bd
       0.20720477 -0.01705645 -0.07030882 -0.07796134
0000a0 de 27 61 3d a4 a9 e7 bd ab d4 08 3e 52 51 af 3c
       0.05496966 -0.11311653 0.13362376 0.021401081
0000b0 71 0b 94 bd 94 35 a8 bd 05 1a 0a bd cd 2e 6c be
       -0.07228745 -0.08213344 -0.03371622 -0.23064728
0000c0 6b ae e0 3d aa 6a 4f 3d 3e 41 23 bd 9c a1 48 bd
       0.109707676 0.050638832 -0.03985714 -0.048982248
0000d0 50 75 78 3e 79 92 38 be 98 51 9b bc 25 15 5f 3d
       0.24263501 -0.18024625 -0.018959805 0.054463524
0000e0 1f 61 91 bd 4f 12 9e 3d c4 d4 4d 3d ee 54 39 3d
       -0.070986025 0.07718336 0.050251737 0.04524701
0000f0 48 e6 da 3c c2 f1 a5 be 62 b9 b3 3d c4 f1 1b bd
       0.026721135 -0.3241101 0.08775593 -0.038072363
000100 df 6b 98 be 0b 5d a8 3d e5 67 04 bd a0 e2 56 3e
       -0.297698 0.082208715 -0.032325644 0.20984888
000110 3d 52 1a be 4c 25 ae bc 10 c3 14 be a8 41 c3 3c
       -0.15070434 -0.021258019 -0.14527535 0.023835018
000120 83 d1 51 bd 79 2c be bd 97 84 a7 be b8 99 9a 3d
       -0.051225197 -0.09285826 -0.32718346 0.07548851
000130 5e 61 d4 3c af a2 e3 3d b6 5d 8b 3d a4 15 db bd
       0.025925335 0.11115014 0.06804983 -0.10697487
000140 3e af 15 bb 1f 45 25 3e e4 f9 aa 3d 74 6a 59 bd
       -0.0022840048 0.16139649 0.08348444 -0.053080037
000150 82 89 46 bb ba 90 5c be 45 82 31 3d f3 31 0f bd
       -0.0030294363 -0.21539584 0.043337125 -0.034959745
000160 e2 56 83 bc 80 66 4e be 5f 10 3d be 86 00 1a bd
       -0.01603264 -0.20156288 -0.18463276 -0.037598155
000170 ab 23 ee bd d3 34 ac 3d d0 42 7a be 6e ce a6 bd
       -0.11627897 0.08408513 -0.2443955 -0.08144842
000180 6d 7c ca bc c6 c7 b6 3d 80 e8 88 be 92 2f 32 be
       -0.024717534 0.089248225 -0.26739883 -0.17400959
000190 d9 83 d5 bd af f6 da bd 73 8c 67 3d f3 3c 81 3e
       -0.104255386 -0.106915824 0.056530427 0.25241813
0001a0 a6 4e da 3d 87 53 af bd 85 f1 da 3d 5b 64 bd bd
       0.10659532 -0.085608535 0.106905974 -0.09247657
0001b0 3b 3f c4 bd 16 4d cf bc 3e 56 b5 3d 05 bf a4 3d
       -0.09582373 -0.025305312 0.0885434 0.080442466
0001c0 97 95 19 bd f1 06 f9 3c 96 a2 8d bd c0 f3 ac 3d
       -0.037496176 0.030398818 -0.069157764 0.08444929
0001d0 68 3a 0e 3e f7 74 a4 bd 65 66 5d bd 54 09 d0 bd
       0.13889468 -0.08030122 -0.05405273 -0.10158029
0001e0 ad 6c f5 bc 79 cf 5d bc 31 99 b4 bd f6 d4 96 3d
       -0.029959047 -0.013538235 -0.088182814 0.07364838
0001f0 78 7a 72 bd b5 42 5f be 28 6a 12 be 9b 17 81 be
       -0.059198827 -0.2180279 -0.14298308 -0.25213322
000200 d9 14 3d 3d 43 63 00 be d1 f6 24 be f6 02 87 3d
       0.04616246 -0.12537865 -0.16109778 0.06592362
000210 19 dd c3 3c 3e 66 24 bd 5a 5c 41 3d 14 00 05 be
       0.023909139 -0.04013657 0.047207214 -0.12988311
000220 a6 f8 4c 3e 10 ba 0b 3e 9d 3a ef bd 8f db 22 bd
       0.20016727 0.13645196 -0.116811015 -0.03976017
000230 fe 7a 6b 3d df 48 29 bc da c3 18 be 2b cb 0a be
       0.05749034 -0.010332315 -0.14918461 -0.13554065
000240 6a 91 5c bd 4b 48 50 3a 83 a1 4d 3e 82 39 06 3e
       -0.053849615 0.0007945343 0.20081143 0.13107875
000250 43 ef ba bd 3d ba 12 bd 1e f6 57 3d e3 7c 0c be
       -0.09127667 -0.035822142 0.05272495 -0.13719516
000260 6e 42 c8 3d d8 c2 04 3e 11 91 1b be 8e df cf bd
       0.097782955 0.12964952 -0.15192057 -0.101500615
000270 35 4b 01 be 84 70 f5 3c 46 ec 12 be 79 be ba 3d
       -0.12626345 0.029960878 -0.14347944 0.09118361
000280 d4 56 09 3e 24 6a 81 be 80 88 50 3c 2e 62 71 bb
       0.13412029 -0.2527629 0.012727857 -0.0036832201
000290 ad 4c 23 3d 36 e6 f6 bc be e5 3e 3d dc c3 de 3d
       0.039868046 -0.03013907 0.046605818 0.10877201
0002a0 17 b5 25 be 56 bd c2 bd 79 41 17 bd f4 99 84 3d
       -0.16182362 -0.09508769 -0.036927674 0.06474677
0002b0 ef 01 30 bc 12 a8 3d 3d d7 e2 ac 3c c6 36 1f 3e
       -0.0107426485 0.046302862 0.02110426 0.15548238
0002c0 49 91 91 3c c4 9d 1f bd 2c ea 1d 3e 48 bc df bd
       0.017769473 -0.038968816 0.1542136 -0.10924584
0002d0 0d 99 27 bc fb 97 2b bd ae 44 84 bd bb e0 42 3d
       -0.010229361 -0.041892987 -0.06458412 0.0475776
0002e0 71 d8 5d 3d 53 72 bd 3d 2f 36 89 be c1 4a 27 be
       0.054161493 0.09250321 -0.2679915 -0.1633711
0002f0 0f d2 b0 3c 49 0c 98 bd 03 be 33 bd 04 8f 18 be
       0.021584539 -0.07424218 -0.04388238 -0.14898306
000300 75 be 56 bd 0a 4d f4 3d ee 10 26 3c d0 d9 25 be
       -0.052427728 0.119287565 0.010135872 -0.1619637
000310 67 9f 70 3d b7 64 8b bd f0 03 e6 bc 87 b0 73 3d
       0.058745768 -0.06806319 -0.02807805 0.05949452
000320 96 45 8e be c9 f0 4f 3d 86 b4 9e bd d9 84 a0 3c
       -0.27787465 0.05076674 -0.07749276 0.019594597
000330 a1 cd a9 3d d3 43 8e bd 6f 4c e4 bc a9 e7 69 3d
       0.08291174 -0.0694653 -0.027868478 0.057105694
000340 1e 52 72 3d 80 5f ca bc 90 43 84 3e 66 33 f6 bd
       0.059160344 -0.024703741 0.25832796 -0.12021522
000350 a7 3a fd 3d b6 3f a2 bd fd 84 1a bc 87 f1 c7 bc
       0.12364703 -0.07922308 -0.009431121 -0.024407161
000360 ea 7e 17 bd c2 2a bb bd 3a 64 c0 3c ec 24 14 be
       -0.03698627 -0.09139015 0.023485292 -0.1446721
000370 ee e8 8b bd 70 5b d2 3d e1 0b 22 be f4 21 e3 3d
       -0.06831537 0.102713466 -0.15824844 0.110904604
000380 fc 23 8e 3d c6 d5 c3 3d 47 47 9a be 33 16 8a bd
       0.06940457 0.095622584 -0.30132505 -0.067425154
000390 f3 db 58 bd 95 7b 50 bd 6f 24 59 3e 8c b2 96 bd
       -0.052944135 -0.050899107 0.21205305 -0.07358274
0003a0 71 73 6d bd d0 7f 23 3b 81 a4 c2 bd 4b 3f 8e 3c
       -0.05797142 0.0024948008 -0.09504033 0.017364165
0003b0 7f dd f2 3c a5 d4 de 3d db 8c 1b be 9c 47 a9 3d
       0.029646633 0.108804025 -0.15190451 0.082656115
0003c0 d9 cc 27 3d 77 dd 85 3d 39 89 80 3d 07 cc 77 3d
       0.040966842 0.06536382 0.06276173 0.06049731
0003d0 47 d8 db bd 2e df 35 3d c8 27 12 3e 6c 04 c7 3d
       -0.10734611 0.044402294 0.14272988 0.0971764
0003e0 18 53 42 bd 13 02 04 be 4e ef 8b 3d 25 6e 23 bd
       -0.047442526 -0.12891416 0.06832753 -0.039899964
0003f0 10 d2 a4 3d 2e 04 26 3d 82 50 33 be 6b 72 8c 3d
       0.08047879 0.04053133 -0.1751118 0.06857761

bias f4 [128]
000000 df 13 34 be b9 8d 62 bd cb 56 c9 bd 0f 3c ba bd
       -0.17585705 -0.05531094 -0.098310076 -0.090934865
000010 95 b9 f6 bd 5e 81 28 bd 89 56 86 bd b0 4d fc bd
       -0.12047116 -0.041139 -0.06559474 -0.12319505
000020 89 6d 90 bd 2b 45 20 be b3 77 ba bd a1 8a ca bb
       -0.07052142 -0.15651385 -0.09104862 -0.0061810766
000030 44 28 59 be f9 a9 f9 bd 53 14 1b be 8c 42 56 be
       -0.21206766 -0.12190623 -0.15144472 -0.20923823
000040 4d 1d b9 bd 0e d5 3f be 8a f8 31 be 76 5e 40 bd
       -0.09038792 -0.18733618 -0.17379966 -0.046965085
000050 65 76 57 be 01 21 cd bd 7f 27 4d be 48 b0 7d bd
       -0.21041258 -0.100160606 -0.20034598 -0.061935693
000060 e3 2a 2c be df 7b 81 bd e4 15 e9 bb 04 1d 9d bd
       -0.16813235 -0.06322455 -0.0071132053 -0.0767155
000070 a7 51 02 be 01 4a fe bd 6b da 18 be 6d 90 1d be
       -0.1272646 -0.12416459 -0.1492707 -0.15387125
000080 51 47 8f bd 1d 47 0b be ff fd 21 be 98 2e 82 bd
       -0.069960244 -0.13601346 -0.15819548 -0.06356543
000090 41 f9 9d bd 6e 51 04 be 8e 0b e6 bd d3 50 0a be
       -0.07713557 -0.12921688 -0.11232673 -0.13507394
0000a0 4f c2 70 bc 3a 11 74 3c fd 6c 45 bd 1e de bb bc
       -0.014694764 0.014896685 -0.048199642 -0.022933062
0000b0 94 a3 83 be 71 88 37 bd fb 75 63 bb f1 fa 9d bd
       -0.25710738 -0.044807855 -0.0034707773 -0.07713879
0000c0 21 4c 1a be aa 61 09 be 5a e1 84 bd f7 d5 31 bc
       -0.15068103 -0.13416162 -0.06488295 -0.010854236
0000d0 31 32 5d bb 25 ae 3a be c5 dc 41 be 76 ef 64 be
       -0.003375184 -0.18230493 -0.18931873 -0.22356972
0000e0 0e 81 a7 bd cc 96 87 bd be 8e a8 bd 54 4c 9f bd
       -0.08178912 -0.06620559 -0.08230351 -0.0777823
0000f0 1e dc 98 bd 17 ee c2 bd 42 bb d1 bd 12 35 2a bd
       -0.07463859 -0.09518068 -0.10240795 -0.041554518
000100 9e 1a 19 be 87 79 a3 bd 0f 1a 60 be 07 aa bf bd
       -0.1495156 -0.07982164 -0.2188494 -0.09358602
000110 aa 71 0b be 9c 33 07 be d0 dd 0b 3d 8b 2e ca 3b
       -0.13617578 -0.13203281 0.034147084 0.006170099
000120 10 0f 14 be 40 86 e3 bd a1 22 5c be 08 16 68 bd
       -0.14458871 -0.111095905 -0.21497585 -0.056661636
000130 bf bd 8f 3c 6f d8 cd bd 8a fd a5 bd 51 ba cc bd
       0.017546533 -0.10051047 -0.08104999 -0.099964745
000140 fe 8f 2d be 4c 90 35 bd ed 75 21 be 40 bb 44 bd
       -0.1694946 -0.044327065 -0.15767641 -0.048030138
000150 d6 74 35 bd fb 9a 92 bd ce 30 51 be 71 4d d3 bc
       -0.044300877 -0.071584664 -0.20428774 -0.025793763
000160 99 a5 98 bc 5d 1e fb bd 05 91 6c 3c cf cf 38 bd
       -0.01863365 -0.12261651 0.014438872 -0.045120057
000170 bf e4 f9 bd 6d 80 2f be ff cc 17 be 1e 51 81 bd
       -0.12201833 -0.17138834 -0.14824294 -0.063143
000180 2d 93 a6 bd fb e4 cc bc 51 52 50 be 86 5e 28 be
       -0.0813354 -0.02501153 -0.20343901 -0.16442308
000190 f0 68 25 bd 6b 56 14 bd 4f c3 06 bd 63 9e fe 3b
       -0.04038328 -0.036215227 -0.032901105 0.007770346
0001a0 fa fc 82 bd a2 4d a1 bd 0f 25 0a be 04 4c 80 bb
       -0.06395908 -0.078761354 -0.13490699 -0.003915312
0001b0 4e f7 cb bd 9f 16 20 be 6b 87 62 be e7 87 16 be
       -0.09959279 -0.1563363 -0.2212197 -0.1470028
0001c0 37 49 19 be 81 34 b4 bc ff 6e 23 be 11 50 a1 be
       -0.14969335 -0.021997692 -0.1596031 -0.31506398
0001d0 25 82 31 be 0d ba 88 be e6 28 c3 bd 0d 54 a1 bd
       -0.17334802 -0.26704445 -0.09529285 -0.078773595
0001e0 50 df fe bd 32 5c 10 be 15 67 90 bc fa 83 33 be
       -0.12444937 -0.1409767 -0.017627278 -0.17530814
0001f0 05 60 b6 bd 33 50 fd bd 4d b5 09 be b1 03 9a bc
       -0.08905033 -0.123688124 -0.13448067 -0.018800588

weight f4 [12, 128]
000000 31 8b b3 3b b9 cc 1c bc ce 3b 9a bd cd af cf 3c
       0.0054792394 -0.009570294 -0.07530938 0.025352383
000010 4a 3e 13 bd e6 c0 41 3d 60 72 d2 bb 2f 5e 49 3c
       -0.035948075 0.047303103 -0.006422326 0.0122905215
000020 47 98 94 3c d2 62 8e bd 8f 34 48 3d 47 d1 86 bb
       0.018139018 -0.06952442 0.04887825 -0.0041143033
000030 40 0b ed 3c d8 92 09 3d 03 6e 8f 3d e6 49 a4 3c
       0.028936028 0.033587307 0.07003405 0.020054769
000040 1f 6f 3b 3d c5 1e 7e bc 60 e7 8e bd dc a2 9f bc
       0.04576027 -0.015510266 -0.06977725 -0.019486837
000050 b9 4d 44 3d 3a 7b 33 3d e9 76 b5 bc 1c 4f 08 3d
       0.047925685 0.04381869 -0.022151427 0.03327857
000060 03 84 8c 3c 92 2f 02 bd c4 20 6d 3c 46 84 95 bc
       0.017152792 -0.031783648 0.014473144 -0.01825155
000070 b4 e1 d3 ba 57 db a6 bc 04 ab b4 bb 20 35 59 3d
       -0.0016165287 -0.020368261 -0.0055135507 0.05302918
000080 f1 dd 7f bc 31 74 1f bc 1d ff 4f 3d c1 3a 97 bc
       -0.01561688 -0.009732292 0.050780404 -0.018460633
000090 c9 f3 f0 bc 6e 34 36 3d 92 72 5f 3d 6d 6b 21 bc
       -0.02941312 0.044483595 0.054552622 -0.009852272
0000a0 d3 01 32 bd 19 35 15 bd 69 f8 78 3d 16 6e f5 bc
       -0.04345877 -0.03642759 0.060783777 -0.02995972
0000b0 8e 18 20 3e cb 25 be bd 3a 27 05 3d ee 7a 82 3d
       0.15634367 -0.09284552 0.032508112 0.06371103
0000c0 60 44 bb 3d ab 9a d6 bc 96 b8 83 3c ae ac 0a bd
       0.09143901 -0.026196798 0.016079228 -0.033856086
0000d0 c3 02 24 3c 23 80 76 3d 1c d0 43 bd 36 99 53 bd
       0.010010424 0.060180794 -0.04780589 -0.051659785
0000e0 3c 14 8b 3d 7c e6 91 bd 45 ab 03 3d 37 b6 60 3d
       0.06790969 -0.071240395 0.032145757 0.054861274
0000f0 e5 fc 96 bc 6b 76 12 3c d8 8c 94 3d a7 23 14 3c
       -0.018431136 0.008939366 0.07253426 0.009041703
000100 5c 3b 34 bd fc c7 49 bd ca e7 a7 3c 3c 7b 58 3d
       -0.044001922 -0.049262986 0.020496268 0.0528519
000110 d0 33 ac 3d df 57 dd 3c 4d 17 d9 bc 5c 9a 38 bc
       0.0840832 0.02701944 -0.026500368 -0.011267271
000120 5b 23 89 3c da bd 32 3c 1c bc bc 3b d1 e5 d7 bd
       0.016740492 0.010909522 0.005759729 -0.10541881
000130 7b 4f b8 3c 12 05 33 3c e0 18 0e 3c 45 72 5f bd
       0.022498837 0.010926502 0.008672923 -0.054552335
000140 70 52 70 3c ac 61 c6 bd b6 f5 59 bb 48 28 a4 3c
       0.014668092 -0.09686598 -0.0033258027 0.020038739
000150 56 5d 26 bd 48 40 07 ba 1e 6f c5 3c 08 73 2b 3d
       -0.040616356 -0.000515942 0.024100836 0.04185775
000160 88 d7 22 3d 8c 8f 03 3d 72 b5 28 bd 63 dd 0d 3c
       0.039756328 0.03211932 -0.041188665 0.00865874
000170 1c ff 85 bc 18 98 bc bc c6 7f ef ba 47 97 a1 3c
       -0.016356997 -0.023021743 -0.0018272332 0.019725455
000180 5f e5 9f bc f6 fe 8c 3c d8 ef 0d bd b6 1d 30 3d
       -0.019518552 0.017211419 -0.03465256 0.042997085
000190 de 8f 4a 3d d6 9b 53 3d 1d e6 80 bc ee 78 b6 3c
       0.04945361 0.05166229 -0.015734727 0.02227446
0001a0 69 42 b7 b8 dd f9 ac 3b 0a 66 5d 3d 13 7c 76 bd
       -8.73849e-05 0.0052788095 0.05405239 -0.06017692
0001b0 2b a4 b7 3c b3 01 45 bd 02 92 12 3d 5b 2f 78 3b
       0.022417149 -0.048097324 0.035783775 0.0037870023
0001c0 3a 89 59 3c 1a 81 9a bc 19 89 03 bd 79 fb 9f 3c
       0.013277346 -0.018860389 -0.03211317 0.019529091
0001d0 b8 09 ac bc 28 f6 0a 3e 18 71 91 bb 6c 09 cd bd
       -0.021000728 0.13570464 -0.0044385307 -0.10011563
0001e0 7f 67 ce 3d b7 ce 91 3a 4b 9b 62 bc 0e e4 ba 3c
       0.10078334 0.0011124228 -0.01383097 0.022813823
0001f0 eb 32 a6 bd 30 80 ac 3c 6d 01 80 bc 40 ec 3d bc
       -0.081151806 0.021057218 -0.01562568 -0.011591971
000200 b7 aa 4e bd 84 02 35 bd 90 99 ac 3d 35 4c 2b bd
       -0.050455775 -0.044191852 0.08427727 -0.041820724
000210 cf 87 43 3d 9e 27 30 bd be b0 e4 3c 93 02 6e 3d
       0.04773694 -0.043006532 0.027916308 0.058107924
000220 64 68 08 3d 9d ae 83 bd 24 30 19 bc 3d 8a 36 3e
       0.03330268 -0.06429789 -0.0093498565 0.17826171
000230 60 9c 35 3e 42 c0 4e bc be 17 5d bc 84 d6 9c ba
       0.17735434 -0.01261908 -0.01349443 -0.0011965786
000240 62 7a 2a 3d 90 8c c0 3b c6 1a 81 3d ad ce 26 3d
       0.04162062 0.0058761314 0.06303935 0.040724445
000250 5b d2 3c bd 09 3c 19 3d 97 0c 85 bc fe 58 3b bd
       -0.046099048 0.03741077 -0.016241355 -0.045739166
000260 32 d7 54 3d 89 24 12 ba b5 9e 0e 3d 9d 02 a7 3d
       0.05196304 -0.0005574902 0.034819324 0.08154795
000270 2f eb a1 3d 35 e3 00 be 63 14 9e bb 6d 09 8e 3a
       0.07906186 -0.12586673 -0.0048242076 0.0010836549
000280 60 1c bd bc a2 d2 e8 3d d6 ad 46 3d ed f9 dd 3a
       -0.02308482 0.113683 0.048505627 0.0016935446
000290 8b fc 34 3d ff 67 96 bc 61 c8 78 bd 2a 44 04 bd
       0.044186156 -0.018360136 -0.06073797 -0.03229157
0002a0 b8 52 08 bd 67 6b 33 be 34 a9 28 be 6d 9d a1 ba
       -0.03328201 -0.1752144 -0.16470796 -0.0012330242
0002b0 7d b7 e5 3d 1f 93 10 3c 7f 73 2d bd 07 2b 5a 3c
       0.11216638 0.008824139 -0.042346474 0.013315923
0002c0 59 50 17 be ec 04 a5 3d bb 51 93 bc a5 ef 59 bc
       -0.14776744 0.080575794 -0.017983308 -0.013301765
0002d0 25 83 8f bd 22 dc 06 3e fb 1a 73 bd 76 0b d3 bc
       -0.07007436 0.13169912 -0.059351902 -0.025762301
0002e0 c5 86 65 3d 04 ff 2f bd f9 db 1c bc e7 d2 1b bd
       0.05603673 -0.04296781 -0.00957393 -0.03804293
0002f0 53 e5 a6 bc fd 0b 33 3d f2 16 d9 3c d5 ab 2b bc
       -0.020373022 0.043712605 0.026500199 -0.01047798
000300 a1 f1 aa bc 54 67 4d 3b 1f c3 d1 bc bf 7e c8 b9
       -0.02086717 0.0031342106 -0.025605736 -0.00038241406
000310 73 13 1c 3c c0 6f 17 3e bd 1b 57 3c 78 17 8e bc
       0.009526121 0.14788723 0.013129172 -0.017345175
000320 df 96 a5 3b 03 68 68 bb cd 60 31 3c 92 0a 0e bc
       0.0050533856 -0.0035462386 0.010826302 -0.008669512
000330 0d 29 cb 3c 7c 31 03 3d aa 63 25 bc ee ed 52 bd
       0.024799848 0.032029614 -0.010094563 -0.05149644
000340 09 c1 16 3b 87 02 40 bb 0a d5 45 3c 90 1e 1a 3d
       0.0023003242 -0.0029298381 0.012074718 0.037626803
000350 25 2b f3 3c 90 fd 28 3d cf d1 f1 3b 9d d9 28 bc
       0.029683659 0.04125744 0.0073797475 -0.010305789
000360 6d 52 6e 3d 17 8b 81 bd 56 54 10 3d 0c d7 15 bc
       0.058184076 -0.063253574 0.03523668 -0.009145509
000370 a4 2f bc bc 5a 52 99 3c 4b ac 73 bc 87 da 40 3d
       -0.022971936 0.018716026 -0.014872621 0.047083404
000380 11 f0 2f 3d 13 a9 f3 bc d3 85 e5 3c 12 15 4a 3c
       0.042953555 -0.029743707 0.028017914 0.012334125
000390 6d a3 ec 3c ad 4f 52 bd 36 a5 38 bd b7 f4 7c 3d
       0.028886521 -0.051345516 -0.045079432 0.061756816
0003a0 b2 1d 68 3d c0 c6 c1 3c 63 b7 98 3c 54 2d cf bc
       0.056668945 0.023654342 0.018642133 -0.025290169
0003b0 5d ec 4e 3c 35 94 a3 bc d8 e6 16 3d 2e 5c 1c 3d
       0.012629596 -0.019968132 0.036841244 0.038173847
0003c0 a1 e3 c1 bc 27 24 05 ba 23 4d 3e bd 8e 1f dc bd
       -0.023668112 -0.00050789345 -0.046460282 -0.10748206
0003d0 1f 8f 89 ba 4b 26 35 bd be c3 78 be 8a 66 5c 3d
       -0.0010494924 -0.044225972 -0.2429342 0.053808726
0003e0 6d 85 67 bb f1 39 4d 3d 10 46 5d bd 6d 01 84 bb
       -0.003532733 0.050104085 -0.054021895 -0.0040284903
0003f0 2d 66 1a bd 6f 1e b1 bc 0f 6d 0a bd bc ba 2e 3d
       -0.0376951 -0.021620957 -0.033795413 0.042658553

bias f4 [12]
000000 c2 4c 21 3d ad b2 68 3d bd 6c 08 3e 80 12 50 3e
       0.039379843 0.056811024 0.1332273 0.20319557
000010 e7 01 ef 3d 57 a6 12 3d dc 50 2e 3c 7a e5 a7 bc
       0.11670285 0.035803165 0.010639396 -0.020495165
000020 e9 aa f1 3d 8a 64 cd ba 7f 8d af 3d 01 8f 0e 3e
       0.11800177 -0.0015670222 0.0857191 0.13921739
