descriptions/unitree/a1_description/config/legged_gym/him.pt (torch, 991679 bytes, 14 tensors)

weight f4 [512, 64]
0	0xbd33f882	-0.043938167
1	0xbb8b68fb	-0.004254458
2	0x3eaba06a	0.33520824
3	0xbe04d3b7	-0.12971388
4	0xbb9aaa99	-0.004720044
5	0xbea391e0	-0.3194723
6	0x3f046d44	0.51729226
7	0xbcfa7d59	-0.030577349
8	0x3d91a0e4	0.071107656
9	0xbeb85a23	-0.3600627
10	0xbe405f83	-0.18786435
11	0x3dd68bef	0.10475909
12	0xbe32c0d1	-0.17456366
13	0x3d48ed00	0.049054146
14	0xbe83c6c8	-0.25737596
15	0x3e39eca4	0.18156677
16	0xbe2a50b9	-0.16632356
17	0xbcc98470	-0.024599284
18	0xbd31ba19	-0.043390367
19	0x3eb00292	0.3437696
20	0xbe7dd579	-0.24788465
21	0xbd9663c7	-0.0734325
22	0xbe082666	-0.13295898
23	0x3dc928fe	0.09822272
24	0x3d854006	0.06506352
25	0x3ea0d06e	0.3140902
26	0xbdb5af12	-0.08871283
27	0xbc472355	-0.01215442
28	0xbe00f729	-0.12594284
29	0xbca54682	-0.020175222
30	0xbe22a621	-0.15883686
31	0x3d62acac	0.055340454
32	0xbe3a0811	-0.1816714
33	0x3d3d3c39	0.04620001
34	0x3d29727f	0.041368958
35	0x3d573102	0.052536972
36	0x3dabdbff	0.0839157
37	0xbd9f4581	-0.07776929
38	0x3cf682e4	0.03009171
39	0x3ccea597	0.025225444
40	0xbba4e836	-0.0050325645
41	0xbc6a6ddd	-0.01430842
42	0xbd11572f	-0.035483535
43	0x3d8a63bd	0.06757305
44	0xbca69506	-0.020334732
45	0x3e09e25f	0.1346526
46	0x3c88b3a6	0.016687226
47	0x3da10367	0.07861977
48	0xbdefe31a	-0.11713238
49	0xbe2d3370	-0.16914153
50	0x3d18770c	0.037222907
51	0xbd923a51	-0.07140029
52	0x3d83c5c7	0.064342074
53	0x3c0ce6b6	0.008599928
54	0xbd4110b5	-0.047135074
55	0xbc8b4b76	-0.017003756
56	0x3a912453	0.0011073448
57	0x3db7c587	0.08973222
58	0xbcb54649	-0.022128241
59	0x3dbe3518	0.092874706
60	0xbcd4991e	-0.025951918
61	0x3cc89f41	0.02449
62	0xbdcb2ff5	-0.099212565
63	0x3dbde375	0.092718996
64	0xbd91dd50	-0.0712229
65	0x3ca474f8	0.020075306
66	0x3ef0904b	0.46985087
67	0xbcd6b03e	-0.026207086
68	0xbe8d1499	-0.27554777
69	0xbe35c600	-0.17751312
70	0x3e350274	0.17676717
71	0xbe4efa03	-0.2021256
72	0x3d5ef949	0.054436956
73	0xbe3dce66	-0.18535766
74	0xbcdf2487	-0.027239097
75	0x3def8f65	0.11697272
76	0x3d268793	0.040656637
77	0xbe6cff27	-0.23144208
78	0xbe3eb323	-0.18623023
79	0x3db35e79	0.087582536
80	0x3e4ddf2f	0.20104669
81	0x3e26f176	0.16303048
82	0x3e249819	0.16073646
83	0x3dede9c5	0.116168536
84	0xbe5d3cf6	-0.21605286
85	0x3d94bf28	0.07263023
86	0xbd8ad7e8	-0.06779462
87	0x3c889011	0.016670259
88	0xbea82cd2	-0.32846695
89	0x3ed6785d	0.41888705
90	0x3e60a5f2	0.21938303
91	0xbdc182de	-0.09448789
92	0xbcdc8561	-0.026919069
93	0x3e5f2d81	0.21794702
94	0xbc3d5f2a	-0.011558333
95	0xbe9ac7b5	-0.3023049
96	0xbe41b22c	-0.18915623
97	0x3da9b85f	0.08287119
98	0x3d794855	0.060859997
99	0xbe2a2cc7	-0.16618644
100	0xbbffafbc	-0.0078029316
101	0x3ceb6995	0.028736869
102	0x3d512a02	0.051065452
103	0xbd9a4b25	-0.07533864
104	0xbdb6eb96	-0.08931653
105	0x3c993db5	0.018706182
106	0xbd3cf162	-0.046128638
107	0x3d3d9853	0.046287846
108	0x3d3f9ef9	0.046782468
109	0x3e0bdde4	0.13658863
110	0x3b623c08	0.0034520645
111	0xbde77959	-0.11302442
112	0xbddfb8b7	-0.109239034
113	0xbdd5f58b	-0.10447224
114	0xbda0914b	-0.078402124
115	0xbdd0141a	-0.10160084
116	0x3dd758a6	0.10514955
117	0xbd97aef0	-0.074064136
118	0xbd80be68	-0.06286317
119	0x3caab43f	0.020837901
120	0x3cf90b26	0.030400824
121	0x3a228d72	0.00062008866
122	0x3d78319f	0.060594197
123	0xbae1d8f2	-0.0017230792
124	0x3d84b58f	0.06479942
125	0x3d9de2a8	0.07709247
126	0x3ca4302d	0.020042503
127	0x3d92938d	0.07157049
128	0x3dae877a	0.08521934
129	0x3d0ca8a5	0.03434052
130	0xbde1e7be	-0.110305294
131	0x3e30c7a0	0.17263651
132	0xbd787406	-0.060657524
133	0xbec50ae4	-0.3848487
134	0xbd6ba1ff	-0.05752754
135	0x3e4de5be	0.20107171
136	0xbd9b6f4a	-0.07589586
137	0x3e1889a9	0.14896263
138	0x3e2cc3af	0.16871522
139	0x3c043aae	0.008070631
140	0x3e3e2684	0.1856938
141	0x3de64a47	0.11244636
142	0xbe00fbf1	-0.12596108
143	0x3e3d5031	0.18487622
144	0x3d81dcc8	0.06340939
145	0xbec143f2	-0.3774715
146	0x3e7115e2	0.23543504
147	0xbe22272b	-0.15835254
148	0xbc40e2a5	-0.011772786
149	0x3e61c588	0.22048008
150	0xbe0c7355	-0.1371587
151	0xbde096c1	-0.10966254
152	0x3d2e4fb8	0.042556494
153	0xbdc3e18a	-0.095645025
154	0xbba5e712	-0.005062946
155	0x3b973da5	0.004615503
156	0x3db7fd8d	0.08983908
157	0xbe68d6a2	-0.22738126
158	0x3e9473e6	0.28994673
159	0x3dd6d4f9	0.1048984
160	0xbdf47678	-0.119366586
161	0x3c065059	0.008197867
162	0x3d105ac5	0.035242815
163	0xbcf58b72	-0.02997372
164	0x3c0839eb	0.00831459
165	0x3cfe2fe4	0.031028695
166	0x3d10f568	0.035390288
167	0xbda06c1a	-0.07833119
168	0xbc854e7f	-0.016272781
169	0xbc1d70dd	-0.009609428
170	0xbc29e175	-0.010368695
171	0xbc95ff17	-0.018310113
172	0xbd67a7f2	-0.05655665
173	0xbd9437b1	-0.07237185
174	0x3cc81a79	0.024426686
175	0x3d766515	0.060154993
176	0xbb00df0c	-0.0019664196
177	0xbd2f36c2	-0.04277683
178	0xbc7805e2	-0.015138121
179	0x3befd4a1	0.0073190485
180	0xbced1282	-0.02893949
181	0xbccb994d	-0.024853373
182	0xbd4e3f5a	-0.050353386
183	0x3c7046c0	0.014665306
184	0xbd2edc63	-0.042690646
185	0x3d90887a	0.07057281
186	0x3d668dc8	0.056287557
187	0xbd9f6d81	-0.07784558
188	0x3d5b9dbb	0.05361722
189	0xbd20daab	-0.039271038
190	0xbd8b6503	-0.06806376
191	0xbda1a8b4	-0.07893506
192	0x3d024068	0.031799704
193	0x3d00bdbf	0.031430956
194	0x3eb1d0d4	0.34729636
195	0x3d000a20	0.031259656
196	0x3db57594	0.08860317
197	0xbe453eb1	-0.19262196
198	0x3ea7acbe	0.3274898
199	0xbdfa5442	-0.12223102
200	0x3dfed029	0.12442047
201	0x3dde9a30	0.10869253
202	0xbe86caa1	-0.2632647
203	0x3e494496	0.1965507
204	0xbe271e35	-0.16320117
205	0x3e31cd7e	0.17363545
206	0xbe88596d	-0.26630726
207	0x3ea88e30	0.3292098
208	0x3e4ab367	0.19794999
209	0x3ea29933	0.31757507
210	0x3db7443d	0.08948562
211	0x3eedffe9	0.46484306
212	0x3dc015ae	0.09379135
213	0x3d7cae35	0.061689574
214	0xbe280568	-0.16408312
215	0x3e18aa56	0.14908728
216	0xbdac2d31	-0.08407057
217	0x3e81e0d5	0.25366846
218	0xbd183c30	-0.037166774
219	0x3dd3de91	0.103451855
220	0xbd0d7ceb	-0.03454296
221	0x3e740e48	0.23833573
222	0xbd0387a1	-0.032111768
223	0xbd261ee0	-0.04055679
224	0xbe09c83d	-0.13455291
225	0x3d5c9d52	0.05386097
226	0xbc37f074	-0.011226762
227	0x3b3fe9cb	0.0029283639
228	0xbb2cf249	-0.002638953
229	0xbd1773a4	-0.036975518
230	0xbd016f73	-0.031600427
231	0xbc46659e	-0.012109188
232	0x3b786f9c	0.0037908321
233	0x3c30844f	0.010773732
234	0xbc7dd1df	-0.015491932
235	0x3ca0486d	0.019565785
236	0x3dac4361	0.08411289
237	0xbdbb6508	-0.091501296
238	0x3d783e97	0.060606565
239	0x3e132f78	0.14373577
240	0xbccbb39b	-0.024865916
241	0x3c84b90b	0.016201517
242	0x3d251664	0.040304556
243	0x3d9d296f	0.076739185
244	0xbc4086bc	-0.011750873
245	0x3cd01427	0.025400234
246	0xbdde9334	-0.108679205
247	0x3cc742f6	0.024323922
248	0xbd6b35ee	-0.05742448
249	0xbcb1f63c	-0.021723859
250	0xbc9f1f50	-0.01942411
251	0x3cbaf69a	0.022822667
252	0xbdacad5a	-0.08431502
253	0x3d83c562	0.06434132
254	0x3e25b89c	0.16183704
255	0xbcb2ebdc	-0.021840982

bias f4 [512]
0	0xbd6c8ab9	-0.057749484
1	0xbd6dc546	-0.058049463
2	0xbe583e44	-0.21117502
3	0x3db30fc5	0.08743242
4	0x3d13e315	0.036105234
5	0xbe1ee3e2	-0.15516618
6	0x3daf7b39	0.08568425
7	0x3db00582	0.085948005
8	0xbda563f5	-0.08075706
9	0xbd8964f4	-0.067087084
10	0x3d272332	0.04080505
11	0x3e0cd555	0.13753255
12	0xbe55e8b9	-0.20889558
13	0xbe0cbab6	-0.137431
14	0xbe4184a8	-0.1889826
15	0x3d4e4997	0.05036315
16	0xbde1ae0f	-0.11019527
17	0xbdebbfcd	-0.115111925
18	0xbd6aaeaa	-0.05729548
19	0x3d46b588	0.048512965
20	0xbd6703a9	-0.056399975
21	0xbce07f05	-0.027404318
22	0x3de348d7	0.110978775
23	0x3dd66198	0.10467833
24	0xbc44c14f	-0.012008979
25	0xbda149b9	-0.078753896
26	0x3d49ba17	0.049249735
27	0xbd4554e0	-0.048176646
28	0x3c4c1ccb	0.012458037
29	0xbcc1ed03	-0.023672586
30	0x3d964e66	0.07339172
31	0x3deea97d	0.11653421
32	0xba205016	-0.00061154494
33	0xbdb29ca4	-0.08721283
34	0x3e60b7a2	0.2194505
35	0x3e06479f	0.13113259
36	0x3d899493	0.067177914
37	0x3cde7111	0.027153524
38	0x3dc34b1c	0.0953581
39	0xba9458c3	-0.0011317957
40	0xbdce40e3	-0.1007097
41	0x3e1dafe8	0.15399134
42	0xbcf45a2d	-0.029828155
43	0x3c99a2f7	0.018754466
44	0xbd89cdda	-0.06728716
45	0x3ce8e051	0.028427275
46	0xbdd65ed2	-0.10467304
47	0xbdc5fd13	-0.09667411
48	0xbe120a90	-0.14261842
49	0xbd69a605	-0.057043094
50	0xbcd15c96	-0.025556844
51	0xbd79218c	-0.06082301
52	0x3daddae0	0.08489013
53	0x3dfb5df3	0.12273779
54	0x3e221e87	0.15831958
55	0xbe492863	-0.19644313
56	0xbda17aab	-0.07884725
57	0x3d4e4040	0.050354242
58	0xbc6bc330	-0.014389798
59	0xbda4bcb9	-0.080438085
60	0x3dc99833	0.09843483
61	0xbdaf3db9	-0.085566945
62	0x3dd40643	0.10352757
63	0xbe1608f3	-0.14651851
64	0x3b0c3c57	0.002139827
65	0x3e2eddd8	0.17076814
66	0x3d6edfbb	0.058318835
67	0x3def6a00	0.1169014
68	0xbd9257c5	-0.07145647
69	0x3e42b0aa	0.19012704
70	0x3e14d0f1	0.1453283
71	0x3c98ed46	0.018667828
72	0x3ca3e745	0.020007739
73	0xbdc9e3fd	-0.098579384
74	0x3e148c0f	0.14506553
75	0xbc03176e	-0.008001192
76	0x3e09c732	0.13454893
77	0xbd6e2d91	-0.058148924
78	0xbd9dc18f	-0.07702934
79	0x3d5e23fb	0.054233532
80	0xbd478126	-0.04870715
81	0xbe7e2adc	-0.24821037
82	0x3db76a8b	0.08955868
83	0x3e245e35	0.16051562
84	0xbd9deccc	-0.07711181
85	0xbb171943	-0.0023055829
86	0x3e349eec	0.17638749
87	0xbced674c	-0.02897992
88	0xbdf88446	-0.12134604
89	0x3d39eb0a	0.045390166
90	0xbddd0480	-0.10791874
91	0xbde9747e	-0.11399172
92	0x3e51e22b	0.20496432
93	0xbd8bcc71	-0.068261035
94	0xbe3d93cd	-0.18513413
95	0x3dc47705	0.09593014
96	0xbd7c2c95	-0.061565954
97	0x3e366671	0.17812516
98	0xbd454a58	-0.048166603
99	0x3e91a661	0.2844725
100	0xbdb793d9	-0.089637466
101	0xbcc917be	-0.024547454
102	0xbcc088da	-0.023502756
103	0xbe23a1cb	-0.15979688
104	0x3e400f56	0.1875585
105	0xbd2c0412	-0.04199607
106	0xbdb19a09	-0.08671958
107	0x3dd13576	0.10215275
108	0x3e7cabcf	0.24674915
109	0x3cb63436	0.022241693
110	0x3d8bf100	0.068330765
111	0x3dc337d3	0.09532132
112	0xbd8c59e6	-0.06853084
113	0x3e3185ff	0.17336272
114	0xbe2288d2	-0.15872505
115	0xbdfae0c1	-0.122499
116	0xbde82d10	-0.1133672
117	0x3c9511f6	0.018197041
118	0xbdf33d68	-0.11876947
119	0x3db40f1d	0.08791945
120	0x3d463d35	0.048398215
121	0x3dff6fbd	0.12472484
122	0x3e559a3d	0.20859618
123	0x3da31592	0.079630986
124	0xbd7c3488	-0.061573535
125	0x3d8d1aed	0.06889901
126	0xbdef801b	-0.11694356
127	0x3e251993	0.16123037
128	0xbe628a59	-0.22123088
129	0x3d9601e1	0.07324577
130	0x3d9174b2	0.07102336
131	0xbd1604a0	-0.036625504
132	0x3c0aca15	0.008471032
133	0x3cb55c17	0.022138638
134	0x3e7e5847	0.24838363
135	0x3e60c81d	0.21951337
136	0xbc8d9ac9	-0.017285721
137	0x3bf2fd94	0.007415483
138	0xbdf302e3	-0.11865785
139	0x3dd3ba5b	0.10338279
140	0x3d867878	0.06565946
141	0x3dcbbed1	0.09948505
142	0xbc7b78b8	-0.015348606
143	0x3d8cb4f4	0.068704516
144	0xbe3661a4	-0.17810684
145	0xbd5c2728	-0.05374828
146	0xbe1412a9	-0.14460243
147	0xbe6a66f4	-0.22890836
148	0x3dc75c78	0.09734434
149	0x3d0073b3	0.03136034
150	0x3d75f713	0.06005008
151	0x3d0d510d	0.034501124
152	0x3d27cca9	0.040966664
153	0x3e265dbd	0.16246696
154	0x3d3f080e	0.04663854
155	0x3d9adc0e	0.07561503
156	0xbdc786c7	-0.097425036
157	0xbde4f436	-0.11179392
158	0xbdab0d1c	-0.0835211
159	0x3e50f3bf	0.20405482
160	0x3d8087aa	0.06275876
161	0x3e62ac99	0.22136153
162	0xbe29f796	-0.16598353
163	0x3d2dd4bf	0.04243922
164	0xbc765010	-0.015033737
165	0xbe2c58b2	-0.1683071
166	0x3de71d99	0.11284942
167	0x3de37cba	0.11107774
168	0x3e34119f	0.17584847
169	0x3d7e6853	0.06211121
170	0x3d66966c	0.056295797
171	0x3d5888da	0.052864887
172	0x3d66f918	0.056389898
173	0xbdfd234c	-0.12360248
174	0xbd896f27	-0.06710654
175	0x3e009802	0.12557986
176	0xbdf23608	-0.11826712
177	0xbde5eda6	-0.112269685
178	0x3d2d0277	0.04223868
179	0x3e3cd715	0.18441422
180	0xbd399a8b	-0.0453134
181	0x3b94a6be	0.004536479
182	0x3dd5bb1f	0.10436081
183	0x3d8db89b	0.06919976
184	0xbe16d0fd	-0.1472816
185	0x3e0436b7	0.12911497
186	0xbd9983b7	-0.07495826
187	0xbe710994	-0.2353881
188	0x3db68557	0.08912151
189	0x3c5a50bf	0.013324915
190	0xbdef83fb	-0.11695095
191	0xbe820d66	-0.25400847
192	0x3da92407	0.08258825
193	0x3d1b1f21	0.037871484
194	0x3e35061c	0.17678112
195	0x3e556b72	0.20841768
196	0xbe1d91ce	-0.15387651
197	0x3dcaaf18	0.09896678
198	0xbe28dabb	-0.16489689
199	0xbdc5466b	-0.09632572
200	0x3e027d7b	0.1274318
201	0xbe1cfe88	-0.15331471
202	0xbdd37c9e	-0.10326503
203	0xbe953744	-0.29143727
204	0x3d25e030	0.040497005
205	0xbe184a79	-0.14872159
206	0xbe04729f	-0.1293435
207	0x3ceb34e9	0.028711753
208	0xbd952707	-0.072828345
209	0x3e80e311	0.25173238
210	0xbe2a0870	-0.16604781
211	0xbda79a5e	-0.0818374
212	0xbe31303c	-0.17303556
213	0xbbb54b02	-0.0055326233
214	0x3dfe87f7	0.12428277
215	0x3dac45c4	0.08411744
216	0x3caf31eb	0.021386107
217	0x3dfbde43	0.122982524
218	0xbe06fe42	-0.13182929
219	0x3d6fc3a1	0.058536176
220	0x3e005934	0.12534028
221	0x3e05e47c	0.13075441
222	0x3c231233	0.0099530695
223	0xbdfd0ddf	-0.12356161
224	0x3d6dc3c9	0.058048043
225	0xbe56b4f2	-0.20967463
226	0x3d891926	0.0669425
227	0x3cc823ae	0.024431076
228	0xbe833d48	-0.2563269
229	0xbc1e85ca	-0.0096754525
230	0x3e3134b6	0.17305264
231	0x3e5ea03b	0.2174081
232	0xbdf03aaa	-0.11729939
233	0x3dd64c90	0.10463822
234	0x3bad2cb0	0.005284868
235	0xbce2821b	-0.02764993
236	0xbcb8ac48	-0.022543088
237	0xbdbba21f	-0.091617815
238	0x3d45d2eb	0.04829685
239	0xbcc163d4	-0.023607172
240	0x3d9b0dfb	0.07571026
241	0xbe796d1a	-0.24358025
242	0x3db2b4d6	0.08725898
243	0xbdd10566	-0.10206108
244	0xbd70b722	-0.0587684
245	0x3d018e16	0.031629644
246	0x3bcb2221	0.006199137
247	0xbd7e1601	-0.062032703
248	0x3d4cdb6d	0.05001395
249	0xbe84e766	-0.25957793
250	0x3e2943c7	0.16529761
251	0xbc7c8117	-0.015411637
252	0xbc64f411	-0.013974206
253	0xbe527fc9	-0.20556559
254	0x3deebf5d	0.116575934
255	0xbdd00558	-0.10157269

weight f4 [256, 512]
0	0xbd657622	-0.056020863
1	0x3d8e7908	0.06956679
2	0x3d9d6287	0.07684808
3	0x3d27337b	0.04082058
4	0xbd9ffd36	-0.07811968
5	0xbd608891	-0.05481774
6	0x3c26593c	0.010153111
7	0x3d4cdf20	0.050017476
8	0xb98d5254	-0.00026954955
9	0xbd001d91	-0.031278197
10	0x3d5bc650	0.053655922
11	0xbdb1d775	-0.08683673
12	0xbcf9e708	-0.030505672
13	0xbd3d13dd	-0.04616152
14	0xbd91ca46	-0.07118659
15	0x3d47478a	0.04865221
16	0xbd3a499e	-0.045480363
17	0xbd4a975e	-0.04946076
18	0x3ccefcaf	0.025266973
19	0x3c2370d7	0.009975634
20	0xbc017156	-0.007900557
21	0xbd60ccfd	-0.054882992
22	0xbdff3d25	-0.12462834
23	0x3c7b2243	0.015327993
24	0xbdd42ae4	-0.10359743
25	0xbc74089f	-0.014894634
26	0xbd2cc4be	-0.042179815
27	0xbd59f450	-0.05321151
28	0xbcffead5	-0.031239906
29	0xbbfd2e53	-0.0077264695
30	0x3d8230e8	0.063569844
31	0xbd973830	-0.07383764
32	0xbd2e5cd2	-0.04256899
33	0xbd8408ae	-0.06446968
34	0xbc148ebf	-0.009067236
35	0x3d49e5b0	0.049291313
36	0xbdc58cf4	-0.09646025
37	0x3cb87f86	0.022521745
38	0xbd639819	-0.055564974
39	0x3c5ef7ec	0.013608914
40	0x3d6bec4b	0.057598393
41	0x3aceef6e	0.0015787908
42	0xbd076acc	-0.033060834
43	0xbdb17f2c	-0.08666834
44	0xbbbfa863	-0.0058489307
45	0x3b37af67	0.0028028132
46	0xbdeaf338	-0.114721715
47	0xbd3134cf	-0.043263253
48	0xbd6106f9	-0.05493829
49	0x3db6106d	0.08889852
50	0x3d1a11c1	0.037614588
51	0x3ba43b99	0.0050119874
52	0x3dbb5d25	0.09148625
53	0x3c8702ce	0.01648083
54	0xbe00ed82	-0.12590602
55	0xbd394fde	-0.045242183
56	0xbcfb61ae	-0.030686226
57	0xbcf5c15b	-0.029999426
58	0xbcfc23b6	-0.030778747
59	0xbbfbbdb8	-0.0076825283
60	0x3d32dc22	0.043666966
61	0x3c7f7781	0.015592457
62	0xbc4ca7dd	-0.012491194
63	0xbd1493cd	-0.036273766
64	0xbc422e3f	-0.011851846
65	0xbd8276b3	-0.06370296
66	0x3950bbfb	0.00019906454
67	0x3c832c31	0.016012283
68	0x3caa834f	0.020814566
69	0xbdaf7779	-0.085677095
70	0xbbba14d3	-0.005678752
71	0xbda63752	-0.0811602
72	0xbd70e9cf	-0.058816727
73	0x3c0d9ac7	0.008642859
74	0xbd8c8b29	-0.0686248
75	0x3dac3ac6	0.08409648
76	0x3c2b274d	0.010446382
77	0xbc7a6095	-0.015281816
78	0xbdad8214	-0.08472076
79	0x3d3c5816	0.045982443
80	0x390be9be	0.00013343149
81	0x3d8af742	0.06785442
82	0x3cad329f	0.021142302
83	0x3d5d3d44	0.054013506
84	0xbc0c9d9b	-0.008582498
85	0xbd42d2d5	-0.047564346
86	0x3d0bd930	0.034142673
87	0x3dfe1882	0.12407018
88	0x3cf0ca16	0.029393237
89	0x3cd2a343	0.025712615
90	0x3bd21341	0.0064109867
91	0x3d1162b4	0.03549452
92	0xbd19aa77	-0.037516084
93	0x3ccf8349	0.025331156
94	0xbcc683ee	-0.02423283
95	0xbb8cf85d	-0.004302068
96	0x3cd8d769	0.026469903
97	0xbce7fce5	-0.028318832
98	0xbd1c029b	-0.038088422
99	0x3b867407	0.004103187
100	0xbd2271ca	-0.0396593
101	0x3da18635	0.07886926
102	0xbd93463c	-0.071911305
103	0xbc6dd088	-0.01451505
104	0xbdadbef0	-0.08483684
105	0xbbef5060	-0.0073032826
106	0x3d896d5e	0.06710313
107	0xbd68e090	-0.056854784
108	0x3d2808f1	0.041024152
109	0x3c89c9b3	0.01681981
110	0xbd680752	-0.056647606
111	0x3a1cffa6	0.00059890223
112	0xbcf1885b	-0.029483965
113	0xbe05ed27	-0.13078748
114	0x3cf33bc2	0.02969158
115	0x3c8f9925	0.01752908
116	0xbcc7b012	-0.024375949
117	0xbd08cfcb	-0.03340129
118	0xbdc2bc8e	-0.0950862
119	0xbbd07178	-0.006361183
120	0xbe004f14	-0.12530166
121	0xbd8c114b	-0.06839236
122	0x3c46ca5f	0.01213321
123	0xbbb8e952	-0.0056430483
124	0x3cd50b1e	0.026006278
125	0xbc8730c8	-0.016502753
126	0x3e00ed3b	0.12590496
127	0xbc890356	-0.016725224
128	0x3c0c1f76	0.008552423
129	0x3d4d4165	0.050111193
130	0xbd2529db	-0.04032312
131	0xbae3b91b	-0.0017373891
132	0x3d1dd9e6	0.038537882
133	0xbd724f46	-0.059157632
134	0x3c64ab7d	0.013956902
135	0x3b0f6824	0.002188214
136	0x3d803645	0.06260351
137	0xbdcd74a1	-0.10032011
138	0xbcc70c06	-0.024297725
139	0x3e31da0b	0.17368333
140	0xbd32eec4	-0.043684736
141	0xbcd04b6d	-0.02542659
142	0xbd8dc5f0	-0.06922519
143	0xbd386e4e	-0.04502707
144	0x3d55a179	0.052155945
145	0xbd294f3a	-0.041335322
146	0x3d117093	0.03550775
147	0xbb21962f	-0.0024656167
148	0xbdc6cdc0	-0.097072124
149	0xbd81fa35	-0.06346551
150	0x3cb8be0d	0.02255156
151	0xbd5f6bda	-0.054546215
152	0x3e1352de	0.1438708
153	0x3cb42ff4	0.021995522
154	0x3de1c1bb	0.11023279
155	0x3cc3bc65	0.023893544
156	0x3c193d52	0.009352999
157	0xbc9bb9ec	-0.019009553
158	0xbcd650e5	-0.02616162
159	0x3d4b7a71	0.049677316
160	0xbd7bf0f3	-0.061509084
161	0x3db553ff	0.088539116
162	0x3dda9636	0.10673182
163	0xbbef7c80	-0.0073085427
164	0xbc68576f	-0.014181002
165	0xbd63c53a	-0.05560801
166	0x3c775f5b	0.015098418
167	0x3d832963	0.06404378
168	0xbcff1d46	-0.031141888
169	0xbd03091e	-0.031991117
170	0x3c0fe413	0.0087824045
171	0xbd5fddc1	-0.05465484
172	0x3cc44d97	0.023962779
173	0xbcd29c00	-0.025709152
174	0xbaf82e92	-0.0018934777
175	0xbcea41fd	-0.028595919
176	0x3b2ac124	0.0026055062
177	0x3b89156a	0.004183461
178	0x3d54250e	0.05179315
179	0xbd62bfad	-0.055358578
180	0xbcd2d1e2	-0.025734846
181	0x3deafc38	0.11473888
182	0xbcc9f2e5	-0.024651954
183	0xbd879570	-0.066203
184	0xbd397557	-0.04527792
185	0xbda01a4a	-0.07817514
186	0xbd3a1498	-0.045429796
187	0x3d5878e8	0.05284968
188	0x3d836203	0.064151786
189	0x3d91fbf5	0.07128135
190	0x3d26cd2e	0.04072302
191	0x3d010806	0.031501792
192	0x3db7a718	0.089674175
193	0x3d0e1802	0.034690864
194	0xbd2b9eaa	-0.04189936
195	0xbc08f5e5	-0.008359407
196	0xbd23e684	-0.04001476
197	0x3bfce9ef	0.0077183167
198	0x3d841feb	0.064514
199	0x3d80829a	0.0627491
200	0xbc056224	-0.008141074
201	0x3db54cec	0.08852562
202	0x3d2c1b13	0.042018007
203	0xba4182f2	-0.0007381878
204	0xbb272bfb	-0.0025508392
205	0x3c9546a5	0.018222163
206	0x3d6d305f	0.05790746
207	0xbda214ed	-0.079141475
208	0x3c845eb4	0.01615844
209	0xbcdc83b6	-0.026918273
210	0xbd51a599	-0.051183317
211	0xbdc0071d	-0.09376357
212	0x3dae4cb2	0.08510722
213	0xbd0eaed7	-0.03483471
214	0xbab8e708	-0.0014106939
215	0xbc859882	-0.016308073
216	0xbd1c9b8f	-0.03823429
217	0x3cd59544	0.026072152
218	0x3d0fec21	0.0351373
219	0x3d023461	0.031788234
220	0x3c409305	0.011753802
221	0xbccd1c45	-0.025037894
222	0xbc8957e5	-0.016765544
223	0xbcdb8cef	-0.0268006
224	0xbb60a5d8	-0.0034278538
225	0x3c8be69c	0.017077737
226	0xbd6dd305	-0.058062572
227	0x3c05912f	0.00815229
228	0x3d34bb56	0.04412397
229	0xbd868ad9	-0.06569452
230	0xbd19a7ab	-0.037513416
231	0xbbf34c6c	-0.0074248817
232	0x3cc33ccb	0.0238327
233	0xbd1983ef	-0.037479337
234	0xbbf25c0e	-0.0073962277
235	0x3d832cda	0.06405039
236	0x3ca5e320	0.020249903
237	0x3c14117e	0.009037374
238	0x3c1deb8b	0.009638677
239	0xbd329d75	-0.043607194
240	0x3d79852d	0.060918022
241	0x3d82b761	0.06382633
242	0xbcd363b0	-0.02580437
243	0xbd237eb0	-0.03991574
244	0xbdd90660	-0.10596919
245	0x3de679f4	0.112537295
246	0x3d9d376c	0.076765865
247	0xbd65473b	-0.055976134
248	0x3d32de20	0.043668866
249	0x3cf585de	0.02997106
250	0xbd05ce1e	-0.03266727
251	0xbcf16824	-0.029468603
252	0x3b83981b	0.004015935
253	0x3bca4ee3	0.006173955
254	0xbcfb7e5b	-0.0306999
255	0xbda22d15	-0.07918755

bias f4 [256]
0	0xbcc50521	-0.024050297
1	0xbdc17ab4	-0.09447232
2	0xbe091ff0	-0.1339109
3	0x3cce392f	0.025173752
4	0xbda3fa64	-0.080067426
5	0xbc150816	-0.009096166
6	0xbd14b389	-0.03630403
7	0x3bd23cea	0.006415953
8	0xbdea1410	-0.11429608
9	0xbdcee2cf	-0.10101854
10	0x3d04ac19	0.032390688
11	0xbd81be11	-0.063350804
12	0x3c97b2c3	0.018517857
13	0xbd6c40e5	-0.057679076
14	0xbd902b6b	-0.07039531
15	0xbcfeead8	-0.031117842
16	0xbd92fa41	-0.071766384
17	0xbc0b1124	-0.008487973
18	0xbd86ce1b	-0.0658228
19	0x3a3d7ff5	0.0007228845
20	0xbd83fdf2	-0.064449206
21	0xbbb0175e	-0.0053738793
22	0xbddc0272	-0.10742654
23	0xbe243f9d	-0.16039892
24	0xbd284919	-0.041085336
25	0xbd814fb7	-0.063140325
26	0xbd7fede6	-0.062482737
27	0xba71fbf5	-0.0009230965
28	0xbcf69309	-0.030099409
29	0xbdc77be5	-0.09740428
30	0x3cc62d0e	0.024191406
31	0xbe0bf447	-0.13667403
32	0x3a91b71a	0.0011117191
33	0xbccf3b70	-0.025296897
34	0xbd9e3cf0	-0.07726467
35	0x3d6020f6	0.054718934
36	0xbdcdbc80	-0.10045719
37	0x3d0541e5	0.032533545
38	0xbcb5a029	-0.022171097
39	0xbe3442bb	-0.1760358
40	0xbd94e341	-0.07269908
41	0xbde76abf	-0.11299657
42	0xbd3aeeac	-0.04563777
43	0xbe03e697	-0.12880932
44	0xbcf9275f	-0.030414281
45	0xbd83b12a	-0.06430276
46	0xbdde02df	-0.10840391
47	0xbc90c8e2	-0.017673913
48	0xbd0a152d	-0.0337116
49	0xbcbfc326	-0.023408484
50	0xbda282b5	-0.07935087
51	0x3c8acd4b	0.016943594
52	0xbd1b5a9b	-0.037928205
53	0xbd8b280a	-0.06794746
54	0xbd247782	-0.040153034
55	0xbd59c65f	-0.053167697
56	0xbcc830d7	-0.024437351
57	0xbe0ccfb8	-0.13751113
58	0xbd725eba	-0.05917237
59	0xbd5406aa	-0.051764168
60	0xbdceecb6	-0.10103743
61	0xbdec9fbd	-0.11553905
62	0xbe429145	-0.19000728
63	0xbd68e92f	-0.056863006
64	0xbc79ed1d	-0.015254286
65	0xbde7b872	-0.11314477
66	0x3d173c53	0.036922764
67	0xbcdcc74f	-0.026950506
68	0xbe08d623	-0.13362937
69	0xbd673c2a	-0.05645386
70	0xbdb79bbe	-0.08965252
71	0xbd5b2565	-0.05350246
72	0xbce02ee9	-0.027366119
73	0xbdca9d65	-0.09893302
74	0xbd7ddc7f	-0.06197786
75	0xbe0f6e93	-0.14007024
76	0xbe2120df	-0.15735196
77	0xbdbe509f	-0.09292721
78	0xbd896d8c	-0.067103475
79	0xbca47320	-0.020074427
80	0xbdc30c31	-0.0952381
81	0xbaf112d5	-0.0018392453
82	0xbd882568	-0.0664776
83	0xbdd48052	-0.10376038
84	0xbdb0d7da	-0.086349204
85	0xbd365243	-0.044512045
86	0xbe231b0d	-0.15928288
87	0xbc884cf9	-0.016638266
88	0xbc3122e7	-0.010811544
89	0xbd0458e0	-0.03231132
90	0xbd8bdf2b	-0.06829675
91	0xbd9698b1	-0.07353342
92	0xbce345ac	-0.027743183
93	0x3c464dc3	0.012103501
94	0xbdca623f	-0.0988202
95	0xbdf73fc9	-0.12072713
96	0xbdf147ed	-0.11781297
97	0xbd8cef96	-0.06881635
98	0xbdbb0b13	-0.091329716
99	0x3cba1275	0.02271388
100	0x3cc4b588	0.024012342
101	0xbd8c71e5	-0.06857661
102	0xba865e32	-0.0010251461
103	0xbcd850aa	-0.026405651
104	0xbd7a4bed	-0.061107565
105	0xbe0f970a	-0.1402246
106	0xbdf176f9	-0.1179027
107	0xbd94da78	-0.07268232
108	0xbd61b868	-0.055107504
109	0xbd524fda	-0.051345684
110	0xbe0d719f	-0.13812874
111	0xbc5c2d03	-0.013438466
112	0xbd79a9c6	-0.060952924
113	0xbe0de86c	-0.13858193
114	0xbdaa4423	-0.08313777
115	0xbbf6ed6b	-0.0075356266
116	0x3c5d74d7	0.013516626
117	0xbd465cca	-0.048428334
118	0xbd86a8b9	-0.0657515
119	0xbe074998	-0.13211668
120	0xbe1e051c	-0.15431637
121	0x3cfcd9b3	0.030865526
122	0xbd3d91ba	-0.046281554
123	0xbd253c78	-0.04034087
124	0xbdf7c9d3	-0.12099042
125	0xbcfa55e6	-0.030558538
126	0xbd2dc397	-0.042422857
127	0xbbbdce2f	-0.0057924013
128	0xbdb3f9be	-0.08787869
129	0xbd4648a3	-0.048409116
130	0xbd97891d	-0.07399199
131	0xbd97af63	-0.07406499
132	0xbd8abc5e	-0.067742094
133	0xbd23e1ef	-0.04001039
134	0xbe10e4d5	-0.14149792
135	0xbd42e4ba	-0.047581412
136	0xbd2722b2	-0.040804572
137	0xbd04c190	-0.032411158
138	0xbdff3f9d	-0.12463305
139	0x3cb71ff0	0.022354096
140	0x3c709d68	0.014685966
141	0xbdab1e45	-0.08355383
142	0xbd778f91	-0.06043965
143	0xbd836ffb	-0.06417843
144	0xbd169b1d	-0.03676902
145	0x3d5345f3	0.05158038
146	0xbc090273	-0.0083624
147	0xbd251cab	-0.040310543
148	0xbced163a	-0.028941263
149	0x3cee3889	0.029079692
150	0xbccc8785	-0.024966964
151	0xbd3643b6	-0.044498168
152	0xbd8b79e8	-0.06810361
153	0xbdc0c04f	-0.0941168
154	0xbd2b318a	-0.04179529
155	0x3cb1afda	0.021690298
156	0xbd9efdec	-0.077632755
157	0xbd5e074c	-0.054206178
158	0xbd8525d9	-0.065013595
159	0xbdb0c679	-0.08631606
160	0xbd087171	-0.03331131
161	0xbc18a321	-0.009316237
162	0xbd65d384	-0.05610992
163	0xbd9d039b	-0.07666703
164	0x3cad0ee2	0.02112526
165	0xbd71f44a	-0.059070863
166	0x3b7d6cda	0.0038669617
167	0xbd67cb69	-0.05659047
168	0xbd166c35	-0.036724288
169	0xbd6e1c5f	-0.058132526
170	0xbd474888	-0.048653156
171	0xbdaa4814	-0.08314529
172	0x3c82b9ce	0.01595774
173	0xbd94f1b1	-0.072726615
174	0xbddf9000	-0.10916138
175	0xbe02a6b7	-0.12758909
176	0xbe03112c	-0.1279952
177	0xbd142931	-0.036172096
178	0xbd9287fe	-0.07154845
179	0xbdab54e3	-0.083658
180	0xbe331014	-0.17486602
181	0xbbd36792	-0.0064515555
182	0x3c8e63bc	0.017381541
183	0xbcf19e10	-0.029494315
184	0xbde00d08	-0.109399855
185	0x3b1595f7	0.0022824982
186	0xbd5f07e4	-0.054450884
187	0xbdf81fb9	-0.121154256
188	0xbc4e303d	-0.012584743
189	0xbcd11b82	-0.025525812
190	0xbd72f73c	-0.059317812
191	0x3cae3545	0.021265635
192	0xbdb82a86	-0.08992486
193	0xbbf11442	-0.0073571512
194	0x3c001df8	0.007819645
195	0xbcdfa996	-0.027302545
196	0xbb506524	-0.0031798566
197	0xbde3302b	-0.11093172
198	0xbdcfaaa6	-0.101399705
199	0xbdf4ffbe	-0.119628415
200	0xbca6b555	-0.020350138
201	0xbd80c341	-0.06287242
202	0xbdcb8527	-0.09937506
203	0xbd2fc558	-0.04291281
204	0xbdce03d5	-0.10059325
205	0xbdf629d4	-0.12019697
206	0xbd175f4c	-0.036956117
207	0xbd228e35	-0.0396864
208	0xbdc8370e	-0.09776126
209	0xbd02f2f1	-0.03196997
210	0xbd67e7c4	-0.056617513
211	0xbd995ce7	-0.07488423
212	0xbd4eae84	-0.0504594
213	0xbd52d91a	-0.051476575
214	0xbd0fec9b	-0.035137754
215	0xbd8166dd	-0.06318448
216	0xbd04e7bd	-0.032447565
217	0xbdcb8e7a	-0.099392846
218	0xbde65ec5	-0.112485446
219	0xbb3dbdc7	-0.0028952227
220	0xbd584be2	-0.052806742
221	0xbd82ab24	-0.06380299
222	0xbd49e9f0	-0.049295366
223	0x3bd54375	0.0065082856
224	0xbd707113	-0.058701586
225	0xbd42fc8f	-0.04760414
226	0xbd8d1972	-0.06889619
227	0xbe516f23	-0.20452552
228	0xbcc4b53b	-0.024012199
229	0xbd710019	-0.058837984
230	0xbd318134	-0.04333611
231	0xbd88714e	-0.06662236
232	0xbdc260a4	-0.09491089
233	0xbc4fe7af	-0.012689515
234	0xbda90b1f	-0.08254074
235	0xbdcefa95	-0.101063885
236	0xbd9b102d	-0.07571445
237	0xbda2ede1	-0.07955528
238	0xbd8c957a	-0.06864448
239	0xbddc64ba	-0.107613996
240	0xbe0433d5	-0.12910397
241	0xbd5fe0f4	-0.05465789
242	0xbdf3090e	-0.118669614
243	0xbd3eb248	-0.04655674
244	0xbc6d8ef8	-0.014499418
245	0xbcaa28cb	-0.020771405
246	0xbd7f7908	-0.062371284
247	0xbcc84a4b	-0.024449488
248	0xbcb551dc	-0.02213376
249	0xbe03d268	-0.12873232
250	0xbdd07b8d	-0.101798154
251	0xbd913998	-0.07091063
252	0xbdc4c857	-0.09608524
253	0xbd2105c4	-0.03931214
254	0xbb99e0b7	-0.0046959775
255	0xbd58e331	-0.05295104

weight f4 [128, 256]
0	0x3cfcc92b	0.030857643
1	0xbba49c9f	-0.0050235535
2	0x3cc34c20	0.02384001
3	0xbca82cc6	-0.020529162
4	0xbba4027c	-0.005005179
5	0x3d0ed63b	0.034872275
6	0x3ba1ce58	0.004937928
7	0xbaab9cee	-0.0013093033
8	0x3d057b85	0.0325885
9	0xbd1c4e99	-0.038160894
10	0xbc5baaa1	-0.01340738
11	0xbc8c4ec4	-0.017127402
12	0x3d1adc15	0.037807543
13	0x3d0ee2bc	0.0348842
14	0x3d18e6ac	0.03732936
15	0x3cc71429	0.024301605
16	0xbcc76b60	-0.024343193
17	0xbd424006	-0.04742434
18	0x3cdf59e6	0.027264547
19	0x3c3bd84a	0.011465142
20	0xbdf0a435	-0.1175007
21	0xbd94d63b	-0.07267424
22	0xba71c1db	-0.0009222307
23	0x3db3193e	0.08745049
24	0xbdba0785	-0.090834655
25	0x3b39344f	0.0028259938
26	0x3ce06cd7	0.027395649
27	0xbc8102b6	-0.015748363
28	0xbc918b48	-0.01776661
29	0x3d4ca1c3	0.049958955
30	0xbd781fe6	-0.060577296
31	0x3d531311	0.051531855
32	0x3ca63db3	0.020293092
33	0x3d2fc95f	0.04291665
34	0x3c27b6a0	0.010236412
35	0xbd968334	-0.07349244
36	0x3e283460	0.1642623
37	0x3d1af1de	0.03782832
38	0x3d56e5ae	0.052465133
39	0xbd03a822	-0.032142766
40	0xbd61135d	-0.054950107
41	0xbc19b1c0	-0.009380758
42	0x3ccc5515	0.024942914
43	0xbd9b8fa7	-0.07595759
44	0xbd801ac4	-0.06255105
45	0x3cec4f2f	0.028846351
46	0x3e1d5fa3	0.15368514
47	0x3b84b66f	0.004050068
48	0x3c8a8fab	0.01691421
49	0x3c0f6fde	0.008754699
50	0xbcf37ee9	-0.029723601
51	0x3b22ca73	0.0024839907
52	0x3a9d2727	0.0011989818
53	0x3de144ea	0.109994724
54	0xbc6c9cb2	-0.014441656
55	0xbbb303b6	-0.005463089
56	0x3b919a78	0.004443463
57	0xbd467d67	-0.048459437
58	0x3d1517ac	0.03639953
59	0xbd56eb72	-0.052470632
60	0xbe2e5c8a	-0.17027488
61	0x3d0db209	0.034593616
62	0xbd66661f	-0.056249734
63	0x3be2ae70	0.006917767
64	0xbd538b7c	-0.051646695
65	0x3cfa6d34	0.03056965
66	0xbd5dda8b	-0.054163497
67	0xbc3b4b08	-0.011431463
68	0xbdd7d911	-0.10539449
69	0x3d6ef3ed	0.058338095
70	0xbdad79ed	-0.08470521
71	0xbd3e6df9	-0.046491597
72	0xbbe6a601	-0.007038832
73	0x3c4f2eb9	0.012645417
74	0xbce00a4a	-0.027348656
75	0xbd225b5d	-0.039637912
76	0xbdfd672f	-0.12373196
77	0x3e4a1219	0.19733466
78	0xbda803d9	-0.08203859
79	0x3b727eaf	0.003700178
80	0xbcc91b4b	-0.024549147
81	0xbbde67e6	-0.006787288
82	0xbd225974	-0.03963609
83	0x3d889352	0.06668724
84	0x3da6dbdc	0.081474036
85	0xbd4619e6	-0.048364542
86	0x3d2d46d2	0.042303868
87	0xbb27964b	-0.002557176
88	0xbd4c9c8e	-0.04995399
89	0xbd629d97	-0.05532607
90	0x3dac81c5	0.08423189
91	0xbcd57320	-0.026055872
92	0x3c879e00	0.016554832
93	0xbc35df02	-0.0111005325
94	0x3c3ce988	0.011530288
95	0x3d414058	0.047180504
96	0x3d8875ff	0.06663131
97	0xbd1047b9	-0.03522465
98	0x3b90a479	0.004414138
99	0xbd792bbf	-0.060832735
100	0x3d2a8da6	0.041638993
101	0x3de41424	0.11136654
102	0xbc4823ac	-0.012215536
103	0xba7a8b30	-0.0009557484
104	0xbc34b7b4	-0.011030126
105	0xbd9bd73b	-0.07609411
106	0x3dd6a03d	0.10479782
107	0x3dace0a7	0.084412865
108	0xbdb08e14	-0.08620849
109	0xbdceef4b	-0.10104235
110	0x3e1e139a	0.15437165
111	0x3a765788	0.00093971984
112	0x3d6be6fb	0.057593327
113	0x3c014951	0.007891015
114	0xbd8e75c7	-0.06956058
115	0x3c6a6aad	0.01430766
116	0x3b96054d	0.0045782686
117	0x3b92ee8d	0.004484004
118	0xbd34c3e5	-0.044132132
119	0x3e28364e	0.16426966
120	0x3d860ed3	0.06545796
121	0xba44052b	-0.0007477577
122	0xbdbb0dd2	-0.091334954
123	0xbc26650f	-0.01015593
124	0x3d356fab	0.044295948
125	0xbda64310	-0.0811826
126	0x3cad4081	0.021148922
127	0x3e4ba862	0.19888452
128	0xbd440519	-0.047856424
129	0x3cdd4a41	0.027012946
130	0x3dbee366	0.093207166
131	0x3d4d3cfa	0.05010698
132	0xbd92a699	-0.07160682
133	0xbbd474c5	-0.0064836466
134	0x3d4b9f7b	0.04971264
135	0xbcf51cd9	-0.029920982
136	0x3c0f90ac	0.00876252
137	0x3c31ee68	0.010860063
138	0x3d6976da	0.05699811
139	0xbd077111	-0.033066813
140	0xbc1c0e80	-0.009524941
141	0x3cb87312	0.022515807
142	0x3cb8a877	0.022541268
143	0x3db3fd6e	0.08788572
144	0xbcd5fc28	-0.026121214
145	0x3db8843c	0.09009597
146	0xbcf0008f	-0.029297141
147	0xbbc7d12b	-0.006097933
148	0xbe01f9d1	-0.12692954
149	0x3d863c36	0.06554453
150	0x3d4837b1	0.048881236
151	0x3c861d0c	0.016371273
152	0xbc52d440	-0.012867987
153	0x3c24e8f5	0.010065307
154	0x3cfd1106	0.030891906
155	0xbb96073d	-0.0045784996
156	0xbcaf4b36	-0.021398168
157	0xbbe2a478	-0.006916579
158	0x3b2aa364	0.002603733
159	0x3d1a8608	0.03772548
160	0xbd06b4c4	-0.032887235
161	0x3c4a9ab7	0.012365988
162	0xbe0c9637	-0.13729177
163	0x3d85d387	0.06534486
164	0x3cc91cd4	0.02454988
165	0x3a9f6809	0.0012161742
166	0x3c408428	0.0117502585
167	0x3db9e66a	0.09077151
168	0x3c1b00ad	0.00946061
169	0x3d7f2d8b	0.062299293
170	0x3d35ada8	0.044355065
171	0x3cba4194	0.022736348
172	0xbbf477b0	-0.007460557
173	0x3d4365ba	0.047704436
174	0x3d1950d4	0.0374306
175	0x3bdcfed7	0.0067442465
176	0xbdc67fec	-0.09692368
177	0xbc0ef2da	-0.0087248925
178	0x3c940ca7	0.01807244
179	0x3cc0e2a9	0.02354558
180	0xbcecbd18	-0.02889876
181	0x3d24ac21	0.040203217
182	0x3d4edbcc	0.050502583
183	0x3d9cd03e	0.076569065
184	0xbdb0b34a	-0.08627947
185	0x3d196afa	0.037455536
186	0xbd0dee2c	-0.034650967
187	0xbdb8d360	-0.090246916
188	0xbd40a56b	-0.047032755
189	0xbbf5bd37	-0.007499363
190	0x3d80f246	0.0629621
191	0x3d643f80	0.05572462
192	0x3d8fab39	0.0701508
193	0xbd508e8a	-0.050917186
194	0x3c68aaed	0.014200908
195	0x3d8e81cf	0.06958353
196	0x3cf8fe16	0.030394595
197	0x3db3bdea	0.087764576
198	0xbd91b488	-0.07114512
199	0x3d8ed599	0.06974334
200	0x3bbaf259	0.0057051596
201	0x3d599e85	0.05312969
202	0xbbf0bd9a	-0.007346821
203	0xbd2a8dc1	-0.041639093
204	0x3e0d2f9f	0.13787697
205	0xbd0080fc	-0.03137301
206	0x3cdf9c4a	0.027296204
207	0x3cf49b1d	0.02985912
208	0x3ca679ee	0.020321812
209	0x3c265e1b	0.010154272
210	0x3c8c0ca1	0.017095866
211	0xb7991d01	-1.8252527e-05
212	0x3b8046b5	0.003914679
213	0x3c0c7869	0.00857363
214	0x3d073ebc	0.033018813
215	0x3ce53cc7	0.027983082
216	0x3d9ec1c9	0.07751805
217	0x3cfa06d9	0.030520843
218	0x3d98a0df	0.07452559
219	0x3d1438ed	0.0361871
220	0x3d35984d	0.0443347
221	0x3d268618	0.040655226
222	0x3d063f78	0.032775372
223	0xbd805a4d	-0.062672235
224	0x3d825070	0.063629985
225	0x3d78c3f4	0.06073375
226	0xbcf44ef8	-0.029822811
227	0x3d395014	0.045242384
228	0xbd3af059	-0.04563937
229	0x3c9c4c16	0.01907925
230	0x3d3ffa96	0.046869837
231	0xbd7a48ae	-0.06110447
232	0xbc1390e5	-0.0090067135
233	0xbccbf580	-0.024897337
234	0x3d81cc90	0.06337845
235	0x3dc3102a	0.095245674
236	0xbd67c545	-0.056584615
237	0x3d2a1cba	0.041531302
238	0xbb57399c	-0.0032840734
239	0x3d8ee0d7	0.069764785
240	0x3d3330c3	0.043747675
241	0x3b221f6a	0.0024737963
242	0xbbad00d0	-0.005279638
243	0xbdf9325e	-0.1216781
244	0xbb169056	-0.0022974215
245	0xbca8ba18	-0.020596549
246	0x3d0a3797	0.03374442
247	0xbd8171e0	-0.06320548
248	0x3d70ba60	0.05877149
249	0x3d688be4	0.056774035
250	0xbdf5d056	-0.120026276
251	0x3db056d7	0.086103134
252	0xba8542a8	-0.001016696
253	0xbcc5bb3f	-0.024137137
254	0x3a948afc	0.0011332924
255	0xbd17cc81	-0.037060264

bias f4 [128]
0	0xbcadf071	-0.021232815
1	0xbd9452b1	-0.07242335
2	0x3c8c4eab	0.017127356
3	0x3cb541fe	0.022126194
4	0xbdea80eb	-0.114503704
5	0xbcee9282	-0.029122595
6	0xbce21798	-0.027599141
7	0xbb5a1bb2	-0.0033280668
8	0xbd631471	-0.055439416
9	0xbccc4af3	-0.024938082
10	0xbe244c80	-0.16044807
11	0xbb319692	-0.0027097804
12	0x3b443a08	0.0029941816
13	0xbc5aa9cd	-0.013346148
14	0xbc9388ae	-0.01800951
15	0xbdb75130	-0.08951032
16	0x3c98b73a	0.018642057
17	0xbdc3de93	-0.09563937
18	0xbcc91077	-0.024543984
19	0xbc346b29	-0.011011877
20	0xbd7c9315	-0.061663706
21	0xbc37ed6d	-0.01122604
22	0xbc864725	-0.016391346
23	0x3d4ed14e	0.050492577
24	0xbc11e457	-0.008904538
25	0xbd71c057	-0.05902132
26	0xbd13df18	-0.03610143
27	0x3a2eeaef	0.0006672581
28	0x3c62f629	0.0138526345
29	0xbd49fe53	-0.049314808
30	0xbd428b27	-0.047495987
31	0xbdd36756	-0.10322444
32	0xbc1dac30	-0.009623572
33	0x39affe73	0.0003356818
34	0xbe216aa2	-0.15763333
35	0xbd3dffef	-0.046386655
36	0xbe9429e0	-0.28938198
37	0xbdb9696a	-0.09053309
38	0xbb8c63c4	-0.004284354
39	0xbdbfc4f3	-0.09363737
40	0xbbde7a65	-0.006789493
41	0x3c759a63	0.014990422
42	0xbd2df92b	-0.042473953
43	0xbde5577d	-0.11198328
44	0x3d4ae048	0.049530298
45	0xbcf67836	-0.030086618
46	0x3c333965	0.010938977
47	0xbd321925	-0.04348101
48	0xbca6315d	-0.02028721
49	0xbd14dd2e	-0.036343746
50	0xbda8caa4	-0.08241776
51	0xbd495b0f	-0.049159106
52	0xbc9e3be8	-0.019315675
53	0xbdf768f4	-0.12080565
54	0x3baf0840	0.0053415596
55	0xbd0f31bd	-0.034959543
56	0xbd2ec347	-0.0426667
57	0x37335d3d	1.069094e-05
58	0xbced186a	-0.028942306
59	0xbda5e9b6	-0.081012174
60	0xbc858cb5	-0.016302446
61	0xbc5121cf	-0.012764408
62	0xbd9b5c19	-0.075859256
63	0xbc4bc5f9	-0.012437337
64	0xbde337c7	-0.11094623
65	0xbda8707e	-0.08224581
66	0xba68fef4	-0.00088880886
67	0xbbe0ef3e	-0.0068644574
68	0xbda378fd	-0.07982061
69	0xbc41823f	-0.011810838
70	0xbce6d0a4	-0.02817566
71	0x3ccfa29e	0.025346097
72	0xbd4b5d5a	-0.049649574
73	0xbca219d6	-0.01978771
74	0xbd814f11	-0.06313909
75	0xbc1898a7	-0.009313739
76	0xbd0eb5b1	-0.034841243
77	0xbdc53640	-0.09629488
78	0xbcbf63f7	-0.023363097
79	0xbd3bd841	-0.045860533
80	0x3d97e039	0.07415814
81	0xbc517103	-0.012783292
82	0xbca00eb7	-0.019538267
83	0xbc86c03f	-0.016449092
84	0xbc7e1c6c	-0.015509706
85	0x3c675b4a	0.014120886
86	0x3bfe9c9e	0.007770135
87	0xbd434e10	-0.047681868
88	0xbd100297	-0.03515872
89	0xbd01e653	-0.031713795
90	0xbd728a07	-0.059213664
91	0xbd2e3c84	-0.04253818
92	0xbdccfdcc	-0.100093454
93	0xbd106e83	-0.035261642
94	0x3c5378c1	0.012907208
95	0x3a34bd7d	0.0006894691
96	0xbc82e927	-0.015980316
97	0xbc7ccb2d	-0.0154293
98	0x3b4ab632	0.003093135
99	0xbdb8eda7	-0.090297036
100	0x3c6c2054	0.0144120045
101	0xbe06f4a6	-0.13179263
102	0xbd0a1d66	-0.033719443
103	0x3c0d5c60	0.008627981
104	0xbe113521	-0.14180423
105	0xbcac3559	-0.021021532
106	0xbbfea1c6	-0.0077707497
107	0xbd9465d3	-0.07245984
108	0xbd577980	-0.052606106
109	0xbc0071d3	-0.007839638
110	0x3d6e7201	0.05821419
111	0xbcba12a9	-0.022713976
112	0xbc8121b7	-0.015763147
113	0xbcd9d570	-0.026591033
114	0xbd0f7437	-0.03502294
115	0xbd99edd2	-0.07516064
116	0xbdaebe67	-0.0853241
117	0xbca9c532	-0.020723913
118	0xbd455337	-0.048175063
119	0xbcb52fdc	-0.022117548
120	0xbb6b0fe9	-0.0035867637
121	0xbd8ff965	-0.0702999
122	0x3c9f9a64	0.019482799
123	0x3cb6d6d7	0.02231924
124	0xbd7c694c	-0.061623856
125	0xbce97c1a	-0.028501559
126	0x3c38b1bf	0.011272847
127	0xbced64e5	-0.028978774

weight f4 [12, 128]
0	0x3d9f4930	0.07777631
1	0xbe1e9457	-0.15486275
2	0x3d0781cc	0.03308277
3	0xbc8e209c	-0.017349534
4	0x3d4f3002	0.050582893
5	0xbc98caae	-0.018651333
6	0xbd012aa5	-0.03153481
7	0x3cdaa8eb	0.026691874
8	0xbd7d757f	-0.06187963
9	0x3d8250ee	0.06363092
10	0x3d8f7820	0.07005334
11	0x3c12dfcb	0.008964489
12	0xbb3e7179	-0.0029059334
13	0x3d2b8196	0.04187163
14	0x3ccb3081	0.024803402
15	0x3cb651e3	0.022255844
16	0x3d2a635e	0.04159867
17	0x3d7c3e4e	0.061582856
18	0x3b1e2df3	0.0024136275
19	0x3c899487	0.016794456
20	0x3a3383ed	0.00068479666
21	0xbb8d7f82	-0.0043181786
22	0xba86ef65	-0.0010294734
23	0xbb9ea516	-0.004841457
24	0x3d0d9a75	0.03457113
25	0x3daba14f	0.083803765
26	0x3b512aab	0.0031916301
27	0x3c96657f	0.018358944
28	0xbae4d7b8	-0.0017459309
29	0x3b75324e	0.0037414017
30	0x3d356c0b	0.04429249
31	0xbd2c7ce0	-0.042111278
32	0xbcc3ee80	-0.023917437
33	0x3d3663a3	0.044528615
34	0xbdc9403f	-0.09826707
35	0x3ca6a2b8	0.020341262
36	0x3d77440f	0.06036764
37	0x3d2929df	0.041299697
38	0x3d34cdf5	0.04414173
39	0xbc764960	-0.015032142
40	0xbb2c6985	-0.0026308012
41	0x3c426b09	0.0118663395
42	0xbd8c984c	-0.06864986
43	0xbd2c201e	-0.042022817
44	0x3ce089e8	0.027409509
45	0xbc6be5a3	-0.014398011
46	0x3c67a6ae	0.014138861
47	0x37bc7a6c	2.2468354e-05
48	0xb9234277	-0.00015569651
49	0xbca54303	-0.020173555
50	0x3c95891f	0.018253861
51	0xbd564a9c	-0.052317247
52	0xbd8f0ee4	-0.06985262
53	0xbc14c904	-0.009081129
54	0xbb3d1c3b	-0.0028855938
55	0xbca3e878	-0.02000831
56	0xbc776e9a	-0.015102053
57	0x3ce14d7f	0.027502773
58	0x3bfe5963	0.0077621206
59	0x3b871578	0.0041224323
60	0xbbd66754	-0.0065430794
61	0x3c188d16	0.009310981
62	0xbc11763a	-0.008878285
63	0xbc9d7066	-0.019218635
64	0x3c99a0df	0.018753467
65	0x3cd5e29a	0.026109029
66	0xbd1f93ee	-0.038959436
67	0x3d23bda4	0.039975777
68	0xbd3bfb22	-0.045893796
69	0xbbbfdca5	-0.0058551603
70	0xbba5c564	-0.005058931
71	0x3d872fd5	0.0660092
72	0x3bb864c7	0.005627248
73	0xbd0131ae	-0.03154152
74	0x3af3ea39	0.0018609233
75	0x3cc9b4ca	0.02462234
76	0xbd893f40	-0.06701517
77	0xbbc2658a	-0.0059325146
78	0x3bf96088	0.0076103844
79	0x3d0f189e	0.034935586
80	0x3dbd7bb0	0.09252107
81	0xbbefa1df	-0.0073129977
82	0x3dc223f5	0.094795145
83	0xbaa04702	-0.0012228193
84	0x3bfd8c25	0.007737654
85	0x3c9d2757	0.019183798
86	0x3d1235e3	0.03569592
87	0xbd1328a8	-0.035927445
88	0x39e8cbe4	0.000444024
89	0xbc4e8ef4	-0.012607325
90	0xbcf523ae	-0.02992424
91	0x3c53d69b	0.012929584
92	0xbc94c3ac	-0.01815971
93	0x3ca05c2b	0.0195752
94	0x3c7d985e	0.015478222
95	0x3c038b13	0.008028763
96	0x3c3bdad0	0.011465743
97	0xbd23ff88	-0.040038615
98	0x3d507d66	0.05090084
99	0x3daf9a2a	0.08574326
100	0x3cc49b60	0.02399987
101	0xbc623ee9	-0.013808944
102	0x3cf66b93	0.030080592
103	0xbc0a1763	-0.008428427
104	0xbd17f33a	-0.037097193
105	0x3d38c0c3	0.045105707
106	0xbb6dd0fe	-0.00362879
107	0xbd14d1c8	-0.036332875
108	0x3d41e618	0.047338575
109	0x3d040a16	0.03223618
110	0xbd8dd8bd	-0.06926105
111	0x3cba6a2d	0.022755707
112	0x3ba4e256	0.005031864
113	0x3c60e3da	0.013726199
114	0x3dcd9652	0.10038437
115	0x3ca7c216	0.02047829
116	0x3c8c3f70	0.017120093
117	0xbbdf2764	-0.0068101157
118	0x3b9536d0	0.0045536533
119	0x3c8a348c	0.01687076
120	0xbcb62688	-0.02223517
121	0xbd768815	-0.06018837
122	0x3c90afb9	0.017661916
123	0x39994400	0.00029233098
124	0x3c694eea	0.014240006
125	0xbc7e9733	-0.015538978
126	0x3ac2ebee	0.0014871338
127	0xbd171d42	-0.036893137
128	0xbd88f0c5	-0.06686548
129	0x3d63352e	0.055470638
130	0x3cddfb8b	0.027097484
131	0x3c4267c0	0.011865556
132	0xbc1bbe91	-0.009505884
133	0x3c468787	0.012117273
134	0x3c9914b7	0.018686635
135	0x3a62a278	0.00086454256
136	0x3de7858c	0.11304769
137	0x3d5cac06	0.05387499
138	0xbc836155	-0.016037622
139	0x3c9aced6	0.018897455
140	0xbc99ac71	-0.018758984
141	0xbbad2de5	-0.005285012
142	0xbb94abb2	-0.0045370692
143	0x3c720234	0.014771033
144	0xbd153156	-0.036424004
145	0xbc453769	-0.012037137
146	0x3c83af9e	0.016074952
147	0x3c9430c4	0.01808966
148	0x3d82f195	0.06393734
149	0x3d6459e8	0.055749804
150	0x39393e9a	0.00017666296
151	0xbd3cce43	-0.046095144
152	0xbcb8648f	-0.022508888
153	0xbdba7c63	-0.09105756
154	0x3d12cfe3	0.035842787
155	0xbcbb16bd	-0.02283799
156	0x3b574c2c	0.0032851798
157	0x3c96f97a	0.018429507
158	0xbbb6e700	-0.0055817366
159	0xbcfe3ca8	-0.031034783
160	0x3b94b2b5	0.004537905
161	0xbc632368	-0.013863422
162	0x39cdb99a	0.0003923893
163	0x3c415f4c	0.011802506
164	0x3e6a30ed	0.22870226
165	0xbc1c9d2a	-0.009558955
166	0x3d845dbc	0.06463191
167	0x3c3748ae	0.011186762
168	0xbc01de13	-0.007926482
169	0xbccea8b3	-0.025226926
170	0xbd317f7a	-0.04333446
171	0x3d0dbdfc	0.03460501
172	0x3d29734a	0.041369714
173	0x3bceab48	0.0063070394
174	0xbc6095bf	-0.013707577
175	0x3d0619b2	0.03273935
176	0xbc496224	-0.012291465
177	0xbc62e6fe	-0.013849018
178	0x3cbc206c	0.022964679
179	0xbcbcbaba	-0.023038257
180	0xbc0abdd3	-0.008468109
181	0x3c43f1ac	0.0119594745
182	0x3d7326f0	0.059363306
183	0xbc1d5807	-0.009603507
184	0xbd79b3e2	-0.060962565
185	0x3c990730	0.018680185
186	0x3dc49b8a	0.09599979
187	0xbcfb121e	-0.030648287
188	0xbd0319e7	-0.032007124
189	0x3c8d5d0b	0.01725628
190	0xbcec2fee	-0.028831448
191	0x3ccb37df	0.024806915
192	0xbe0be1fc	-0.13660425
193	0xbd69fde6	-0.057126902
194	0xbc9be8cf	-0.01903191
195	0xbc84eb3c	-0.01622545
196	0xbb5ce44a	-0.0033705407
197	0xbcaff2b3	-0.021478033
198	0x3adc9408	0.0016828785
199	0x3d00982d	0.031395126
200	0xbcf3545d	-0.029703313
201	0xbbd00d58	-0.006349247
202	0xbd7c329d	-0.061571706
203	0xbd8dd3da	-0.06925173
204	0xbd49d570	-0.049275815
205	0x3d2cbd5d	0.04217278
206	0x3d7669a1	0.06015933
207	0x3d72c21b	0.059267145
208	0x3d13156f	0.035909113
209	0x3c0ac02f	0.008468672
210	0xbe1bac10	-0.15202355
211	0xbd0a60a7	-0.03378358
212	0x3b1da1be	0.0024052705
213	0xbd2bc5bc	-0.04193662
214	0xbca802fc	-0.020509236
215	0x3cb0782b	0.021541676
216	0x3aed422e	0.0018101388
217	0x3ca134db	0.019678524
218	0x3ce62fb0	0.028098911
219	0xbd6679ea	-0.05626861
220	0xbd90c7d3	-0.070693634
221	0xbd9b15fd	-0.07572553
222	0xbd219e25	-0.03945746
223	0x3cc7ca56	0.024388473
224	0x3c6bb296	0.01438584
225	0x3d4587b7	0.04822513
226	0x3a8994a4	0.0010496569
227	0x3de014bd	0.109414555
228	0xbbccbc37	-0.006248023
229	0xbd08094e	-0.033212
230	0xbd08ba3e	-0.03338074
231	0x3d205e0d	0.039152194
232	0x3c7337bd	0.014844832
233	0x3d8234e1	0.06357742
234	0xbbfbac87	-0.007680479
235	0x3d32490f	0.043526705
236	0x3c3d0968	0.011537887
237	0x3d063def	0.03277391
238	0x3d33f2dc	0.04393278
239	0xbba3a099	-0.00499351
240	0x3ce594ca	0.02802505
241	0x3bb37ac5	0.0054772818
242	0x3daddcc2	0.08489372
243	0x3da58c92	0.08083452
244	0x3c41181b	0.011785532
245	0x3d1eb22d	0.03874414
246	0xbb8a0aa6	-0.004212695
247	0xbcbda57c	-0.023150198
248	0x3ce2aba7	0.02766974
249	0xbd1f0cc5	-0.038830537
250	0xbc9195d1	-0.017771633
251	0x3c0e1bc0	0.008673608
252	0x3c34d4bb	0.011037047
253	0xbd50d036	-0.050979815
254	0xbc3fffca	-0.0117187
255	0x3d550704	0.052008644

bias f4 [12]
0	0xbd4b7561	-0.049672488
1	0x3d386146	0.045014642
2	0xbe5732ac	-0.21015424
3	0xbe16e76c	-0.14736718
4	0x3dde739d	0.10861895
5	0xbe12f1e2	-0.14350083
6	0xbd573e53	-0.05254967
7	0x3d0fa70c	0.035071418
8	0xbe2f3ad6	-0.17112288
9	0xbd9bbc0f	-0.07604229
10	0x3d85d5b5	0.06534902
11	0xbdbb39f1	-0.09141911
