descriptions/unitree/go2_description/config/legged_gym/policy.pt (torch, 774037 bytes, 8 tensors)

weight f4 [512, 48]
-0.19046032 -0.047532257 0.020960482 0.03401125 -0.043009475 0.11075667 -0.09937044 -0.4901011
0.12903172 -0.120487414 -0.060342625 0.6064292 -0.039838344 0.24606432 -0.13074185 -0.14299528
0.17430599 -0.122055836 -0.2888574 0.17730312 0.2845256 0.05924309 -0.20259063 -0.027369423
-0.0064124865 0.019239912 -0.13846637 -0.071958944 -0.14258915 0.16607065 -0.003696793 -0.11342505
0.1165308 -0.27448252 -0.048697278 0.08182028 0.087080926 -0.07042475 0.0688181 0.01098976
-0.012063099 0.0006226701 -0.07945352 0.042110182 0.014854084 -0.028245186 0.019994281 -0.059758294
-0.07643703 0.2107516 0.12849434 -0.10169625 0.3054436 -0.0740926 -0.14300816 0.05239462
0.22533894 -0.0890058 -0.1990743 -0.10118731 -0.11302857 -0.22395197 -0.006458866 -0.29162428
-0.27394238 0.22584412 -0.44362104 -0.19388798 0.029990355 -0.20545153 -0.46022102 -0.2597369
0.13173002 0.06455124 0.066797934 0.15353958 -0.28560686 0.31496018 -0.117540084 -0.16817042
0.02010738 0.05904674 0.069204815 -0.046262436 -0.0071384083 0.054830823 -0.07401131 -0.045672014
0.0009473723 -0.08633188 -0.049534507 -0.03149585 0.021708652 0.018291378 0.024319738 -0.012179084
-0.27060455 -0.15678857 -0.038757995 0.04677788 -0.47105676 0.042523224 -0.18057093 -0.08334221
0.027429072 0.0417805 0.079429455 -0.5470881 -0.02644765 0.3093289 -0.025777102 0.033315733
-0.0727156 -0.15804291 -0.22076453 -0.17815393 1.9613439e-05 -0.055772707 -0.021823993 0.2640642
0.16158873 0.027122874 -0.04127939 -0.19339727 -0.10011296 0.28299007 0.06031497 -0.069699734
-0.23607288 -0.050726835 -0.13195479 0.04676387 0.08718725 -0.012435678 -0.0034643705 -0.038808618
0.029562686 -0.026666535 -0.041186996 0.037263926 0.007332692 0.08761717 0.011413302 -0.022349317
-0.053949386 -0.12683184 0.04361508 -0.0711452 -0.14649661 0.2176249 0.071240775 0.39036533
0.045685235 0.083278835 -0.066590704 -0.17668168 0.2185115 0.2055993 0.44997185 -0.4001323
0.07692742 0.013986449 0.120831735 -0.5560486 -0.10475806 -0.40570596 -0.2059414 0.14875673
-0.14318132 -0.017996242 -0.09877526 -0.32529026 0.091378294 0.25030005 -0.13690647 -0.36045343
0.024945935 0.01661298 -0.23794363 -0.024956355 0.057021745 0.12775303 -0.025642654 0.027340908
0.028653357 -0.007368543 0.0043662447 0.02489112 -0.017141044 0.016702589 0.037982035 -0.0077662515
0.06745622 -0.12503117 0.07894674 -0.083601914 -0.500609 0.17345864 -0.24789499 0.015020834
-0.0032350253 -0.08450973 0.060029432 -0.01875665 -0.2830918 -0.1456899 0.0044142487 -0.013968752
0.30171672 0.065800846 -0.08422299 -0.11965356 0.22634333 0.043836974 0.071387485 0.08238149
0.2280068 -0.2320406 -0.32840633 -0.16112408 0.04450923 -0.043936282 -0.076012224 0.12911034
0.28258106 0.14288062 -0.23732978 0.13575298 -0.008514638 -0.013042596 0.102277786 0.06775831
0.03699566 0.02462794 -0.12671812 0.0036794147 0.03894523 0.03676903 0.0471834 -0.12897317
0.148937 -0.13938968 -0.057324328 0.020149456 0.40343097 -0.26380086 -0.11803056 0.30126718
0.09451688 -0.19184642 0.0030343311 -0.6178549 0.10742854 0.057036374 -0.034851346 0.39200562
00000000: 0808 43be 2fb1 42bd 51b5 ab3c 614f 0b3d
00000010: b42a 30bd 65d4 e23d bb82 cbbd 88ee fabe
00000020: e420 043e 1bc2 f6bd d429 77bd f23e 1b3f
00000030: 882d 23bd 49f8 7b3e 31e1 05be 5b6d 12be
00000040: 457d 323e 69f8 f9bd 1ee5 93be f38e 353e
00000050: 57ad 913e e2a8 723d eb73 4fbe d735 e0bc
00000060: d61f d2bb 059d 9d3c 21ca 0dbe 365f 93bd
00000070: e402 12be 6d0e 2a3e e545 72bb 654b e8bd
00000080: b3a7 ee3d f988 8cbe cc76 47bd 6491 a73d
00000090: 7c57 b23d da3a 90bd 81f0 8c3d 650e 343c
000000a0: 4ea4 45bc af3a 233a 87b8 a2bd ba7b 2c3d
000000b0: 8b5e 733c 7362 e7bc 0ccb a33c 1dc5 74bd
000000c0: 058b 9cbd 44cf 573e 0594 033e 2046 d0bd
000000d0: 1b63 9c3e dcbd 97bd bb70 12be be9b 563d
000000e0: 40bf 663e ac48 b6bd 22da 4bbe 4b3b cfbd
000000f0: 867b e7bd aa53 65be e5a4 d3bb c74f 95be
00000100: 2d42 8cbe ae43 673e 4c22 e3be 928a 46be
00000110: 55ae f53c e361 52be 17a2 ebbe 3cfc 84be
00000120: 3ce4 063e 7133 843d 5bcd 883d 7b39 1d3e
00000130: 103b 92be 7642 a13e dbb8 f0bd de34 2cbe
00000140: 3bb8 a43c ffda 713d 41bb 8d3d ae7d 3dbd
00000150: 4fe9 e9bb 4996 603d 3e93 97bd 9412 3bbd
00000160: 1459 783a c5ce b0bd b2e4 4abd cb01 01bd
00000170: 58d6 b13c cdd7 953c 303a c73c c88a 47bc
00000180: ae8c 8abe 2f8d 20be b4c0 1ebd 2a9a 3f3d
00000190: 5a2e f1be d52c 2e3d 96e7 38be 52af aabd
000001a0: efb2 e03c 0822 2b3d e9ab a23d f70d 0cbf
000001b0: bea8 d8bc 5c60 9e3e 802a d3bc 1476 083d
000001c0: ebeb 94bd 00d6 21be 1910 62be fc6d 36be
000001d0: 8a87 a437 ec71 64bd 3bc8 b2bc 6c33 873e
000001e0: 8477 253e ca30 de3c 9414 29bd ef09 46be
000001f0: 0608 cdbd 13e4 903e d40c 773d bcbe 8ebd
00000200: 17bd 71be f1c6 4fbd 281f 07be 798b 3f3d
00000210: 3b8f b23d 04bf 4bbc 7e0a 63bb c9f5 1ebd
00000220: 722d f23c c773 dabc b2b3 28bd 0fa2 183d
00000230: 1447 f03b a170 b33d dcfe 3a3c ea15 b7bc
00000240: 08fa 5cbd 35e0 01be baa5 323d 93b4 91bd
00000250: 3503 16be 10d9 5e3e afe6 913d f7dd c73e
00000260: 7120 3b3d 188e aa3d b560 88bd 0bec 34be
00000270: 7bc1 5f3e 9f88 523e b662 e63e 24de ccbe
00000280: 208c 9d3d 6b27 653c a176 f73d 3359 0ebf
00000290: 658b d6bd b1b8 cfbe 4de2 52be af53 183e
000002a0: 209e 12be db6c 93bc af4a cabd 728c a6be
000002b0: 8b24 bb3d 5427 803e 3631 0cbe 5a8d b8be
000002c0: 6b5b cc3c f217 883c 7fa7 73be 4571 ccbc
000002d0: a28f 693d b1d1 023e 8b10 d2bc 0afa df3c
000002e0: 72ba ea3c d273 f1bb b712 8f3b 76e8 cb3c
000002f0: 606b 8cbc ded3 883c 0d93 1b3d 0a7c febb
00000300: 7d26 8a3d 2c08 00be d4ae a13d 7b37 abbd
00000310: e927 00bf 249f 313e 2fd8 7dbe f219 763c
00000320: b802 54bb 7013 adbd 6ce1 753d 8ca7 99bc
00000330: 69f1 90be bc2f 15be 67a5 903b 31dd 64bc
00000340: 9d7a 9a3e 98c2 863d 1a7d acbd ed0c f5bd
00000350: 8cc6 673e 668e 333d 9a33 923d a0b7 a83d
00000360: 9d7a 693e 0d9c 6dbe e024 a8be b6fd 24be
00000370: 4f4f 363d 88f6 33bd 4cac 9bbd 8035 043e
00000380: 77ae 903e 4c4f 123e 9406 73be d402 0b3e
00000390: fb80 0bbc 9db0 55bc 0477 d13d dec4 8a3d
000003a0: c388 173d 89c0 c93c 65c2 01be 5622 713b
000003b0: 0985 1f3d 1f9b 163d 6143 413d 8b11 04be
000003c0: f182 183e 2bbc 0ebe eacc 6abd 7910 a53c
000003d0: 818e ce3e e810 87be 02ba f1bd b13f 9a3e
000003e0: 1192 c13d 6373 44be a1db 463b bd2b 1ebf
000003f0: 7f03 dc3d f99e 693d 49c0 0ebd f6b4 c83e

bias f4 [512]
-0.12771174 -0.32628074 0.12607436 -0.018112471 0.09271056 -0.18094161 -0.056096584 -0.10261355
0.015209742 0.077033855 -0.049062345 0.12185289 0.1198783 0.10173108 -0.09000126 -0.07774192
-0.05594666 0.07987075 -0.24780852 0.03410664 -0.07565037 -0.055605434 -0.23802663 -0.054096594
-0.076302804 0.09622933 -0.11620709 0.15142109 0.03954711 0.03869624 0.05796688 -0.22520459
-0.1463569 -0.046699677 -0.16927828 0.094809756 0.040312063 0.072343 0.069885984 0.026589595
0.13002846 -0.16301915 -0.0072549814 0.17163417 -0.09592599 0.007530139 -0.10667918 -0.19782194
-0.17733544 0.013954421 -0.10977104 -0.12282259 0.21131125 -0.07232875 -0.13514161 0.004121471
0.14716054 -0.09715857 0.07270745 -0.11371901 0.03794513 0.022894084 0.039590627 0.092528746
-0.101062305 0.0628203 -0.009678279 0.10377291 0.0040103695 0.011402912 -0.13316272 -0.1978555
-0.11862546 0.01819607 -0.19150977 0.12662765 -0.10303986 -0.19547398 0.10258142 -0.13347584
0.046686307 0.07941384 0.048192143 -0.07269034 -0.11425023 -0.07078494 0.039560854 0.050819784
-0.10591304 0.005328733 -0.034652885 0.1402453 -0.00060074485 -0.09223064 -0.03447376 -0.035900485
0.03574734 0.0018385359 -0.0751178 -0.13588998 -0.20437817 -0.07651865 0.0029362994 -0.03615465
0.090695806 -0.082197376 -0.24545878 -0.16512913 -0.056744874 -0.06309058 -0.012251293 -0.17958811
-0.0064884573 0.023720227 0.08493633 -0.05886928 0.055429954 -0.018505722 0.1769335 0.07321053
-0.15734151 -0.066467546 -0.08304705 -0.023437522 -0.14542322 -0.18029869 0.057880353 -0.16985795
-0.091028206 -0.12573469 0.040069383 0.053502 0.013846143 -0.13529885 0.053192023 0.00591033
-0.08483528 0.034060106 0.15365341 0.03780928 -0.175571 0.047938272 0.048259415 -0.0035597896
0.02143855 0.0008535729 0.015727226 0.025073228 -0.095404774 0.084177986 -0.09963131 -0.032336615
0.03502756 -0.15459782 -0.18452646 0.043922406 -0.01474264 -0.13918833 0.17471847 0.10401208
0.041679304 -0.016296046 -0.18069278 -0.06149696 -0.18239015 -0.07374719 -0.13823599 0.0040244116
-0.12123416 0.033041917 -0.1584501 -0.12991849 -0.11144269 0.0404723 -0.2017822 -0.18628202
-0.13174538 -0.14330438 -0.16640164 -0.15197805 -0.13839027 -0.039777428 0.05621438 -0.22117017
-0.09664951 0.069484785 -0.1391455 -0.081599616 0.09743553 -0.011938313 -0.019651568 -0.048379254
-0.0071026245 0.018091585 -0.14464894 -0.014291066 -0.105940334 0.02794469 0.13407879 -0.058723994
0.061397262 0.094208576 0.09019522 -0.12543195 -0.07107787 -0.26344 -0.101585716 0.11922529
-0.14307187 -0.093325086 -0.028671036 0.0059198844 -0.02670157 -0.054347333 -0.048488446 -0.037815552
-0.1119322 -0.11478248 -0.0058665494 -0.08730329 0.11784142 -0.03036071 -0.0037214903 -0.07694142
0.06929111 -0.107915044 0.08168248 0.030030273 -0.0343091 -0.14780134 0.039497748 -0.06590915
-0.13977292 -0.21281287 -0.16825116 0.0492115 0.053291682 -0.15007964 -0.09506937 0.11797236
0.06461316 0.010508879 -0.152353 -0.013332263 -0.2247541 -0.13058616 -0.13012426 0.055947125
-0.13362306 0.013460058 -0.059938807 -0.001962972 0.049932368 0.13291359 0.07880036 0.07628377
00000000: dec6 02be 450e a7be a319 013e 9b60 94bc
00000010: 09df bd3d c248 39be 88c5 65bd 0e27 d2bd
00000020: 4832 793c edc3 9d3d 99f5 48bd 028e f93d
00000030: c182 f53d 6258 d03d 9552 b8bd 2837 9fbd
00000040: 5328 65bd 4793 a33d 84c1 7dbe 67b3 0b3d
00000050: 95ee 9abd 86c2 63bd 41bd 73be 6494 5dbd
00000060: a544 9cbd e213 c53d fcfd edbd 210e 1b3e
00000070: 27fc 213d f37f 1e3d ae6e 6d3d 089c 66be
00000080: 95de 15be 2948 3fbd 4957 2dbe 9e2b c23d
00000090: 431e 253d 9128 943d 6220 8f3d 6cd2 d93c
000000a0: 2e26 053e 7eee 26be 32bb edbb dec0 2f3e
000000b0: d874 c4bd 62bf f63b 9d7a dabd d691 4abe
000000c0: 6c97 35be 15a1 643c a4cf e0bd 698a fbbd
000000d0: fa61 583e 1821 94bd 9062 0abe 680d 873b
000000e0: 41b1 163e 13fb c6bd a5e7 943d 83e5 e8bd
000000f0: 5a6c 1b3d 608c bb3c c829 223d b67f bd3d
00000100: c1f9 cebd eea7 803d a591 1ebc e486 d43d
00000110: 6b69 833b 48d3 3a3c cf5b 08be a29a 4abe
00000120: e8f1 f2bd ed0f 953c 231b 44be aeaa 013e
00000130: 9006 d3bd 552a 48be 3516 d23d e4ad 08be
00000140: 243a 3f3d b9a3 a23d 2065 453d acde 94bd
00000150: 06fc e9bd b2f7 90bd 900a 223d 6828 503d
00000160: f0e8 d8bd a79c ae3b 2ff0 0dbd 779c 0f3e
00000170: 4e7b 1dba 6be3 bcbd 5b34 0dbd 630c 13bd
00000180: ce6b 123d 07fb f03a 5cd7 99bd be26 0bbe
00000190: 8348 51be cfb5 9cbd ee6e 403b e616 14bd
000001a0: b9be b93d 1957 a8bd 8c59 7bbe 9c17 29be
000001b0: 506d 68bd a235 81bd a6b9 48bc f2e5 37be
000001c0: 209d d4bb ec50 c23c 19f3 ad3d ea20 71bd
000001d0: 850a 633d 5099 97bc 0e2e 353e 67ef 953d
000001e0: 221e 21be 2320 88bd 9214 aabd 0c00 c0bc
000001f0: d3e9 14be 38a0 38be f313 6d3d 3eef 2dbe
00000200: ff6c babd 98c0 00be cb1f 243d ea24 5b3d
00000210: efda 623c c88b 0abe e1df 593d 71ab c13b
00000220: 1fbe adbd 9c82 0b3d 5257 1d3e e7dd 1a3d
00000230: e2c8 33be ec5a 443d aaab 453d 5c4b 69bb
00000240: e69f af3c 4fc2 5f3a 62d6 803c 5f66 cd3c
00000250: 9463 c3bd 8265 ac3d 800b ccbd 6673 04bd
00000260: 0f79 0f3d e44e 1ebe 81f4 3cbe fbe7 333d
00000270: 1d8b 71bc 6387 0ebe 66e9 323e 4904 d53d
00000280: ebb7 2a3d 497f 85bc 8707 39be 3de4 7bbd
00000290: 7cc4 3abe c408 97bd bc8d 0dbe 36df 833b
000002a0: 9e49 f8bd f656 073d be40 22be 5a09 05be
000002b0: 113c e4bd 48c6 253d fe9f 4ebe b7c0 3ebe
000002c0: 43e8 06be 62be 12be 3165 2abe 22a0 1bbe
000002d0: 2eb6 0dbe a8ed 22bd 0d41 663d 6f7a 62be
000002e0: 2ef0 c5bd 0a4e 8e3d 287c 0ebe b31d a7bd
000002f0: 478c c73d ea98 43bc 53fc a0bc 5329 46bd
00000300: 22bd e8bb ce34 943c da1e 14be 1325 6abc
00000310: 3ff7 d8bd 43ec e43c f34b 093e 9288 70bd
00000320: b27b 7b3d 6df0 c03d 46b8 b83d 3c71 00be
00000330: 4691 91bd 9ce1 86be 2c0c d0bd 642c f43d
00000340: 6f81 12be 3921 bfbd 85df eabc 97fb c13b
00000350: 40bd dabc 4f9b 5ebd d29b 46bd 7be4 1abd
00000360: b63c e5bd 1413 ebbd 2f3c c0bb 11cc b2bd
00000370: d856 f13d 06b7 f8bc 3fe4 73bb 7793 9dbd
00000380: 7fe8 8d3d 9002 ddbd 2549 a73d 0c02 f63c
00000390: b387 0cbd 3c59 17be 64c8 213d 60fb 86bd
000003a0: a220 0fbe 9eeb 59be 084a 2cbe ff91 493d
000003b0: 6148 5a3d 7aae 19be bbb3 c2bd 7e9b f13d
000003c0: e853 843d 6f2d 2c3c 6d02 1cbe 906f 5abc
000003d0: f025 66be 61b8 05be 4b3f 05be d028 653d
000003e0: 7cd4 08be 9387 5c3c 6582 75bd 35a5 00bb
000003f0: e285 4c3d 801a 083e 1562 a13d aa3a 9c3d

weight f4 [256, 512]
0.12095517 0.15106295 -0.07401884 0.045292992 0.05481663 0.09537415 -0.08233565 0.056800876
-0.08951969 -0.105480455 -0.047399387 -0.13969696 -0.08101548 0.04320263 0.13066241 0.06831404
-0.08282046 0.06141248 0.09914793 -0.16410102 0.11780443 0.06127989 -0.016563574 -0.005607216
0.016902085 -0.10285131 0.33500546 0.12339612 0.004137173 0.07420163 0.14303996 0.12897058
-0.011104957 0.118634515 0.03833574 -0.05780398 -0.018712182 0.013558364 0.17547812 0.030757984
-0.020491336 0.14466015 0.07484004 0.019054161 0.04050525 0.08129747 -0.11254732 0.016310431
0.13769577 0.021553395 0.0027502244 0.055118583 -0.0057673687 -0.006083852 0.11364467 -0.057990115
-0.13642551 -0.0439644 -0.17823206 0.051595915 -0.08207218 0.023210213 -0.1011399 0.06943934
0.1052351 0.07807832 0.00511362 -0.06886214 0.049110703 -0.1694001 0.056251813 0.09541529
-0.08277351 0.13928127 0.055063836 -0.05830584 0.28106466 0.07610868 0.059998766 -0.11124062
-0.18633978 0.009839851 0.10950714 0.09043443 0.09598295 0.13998722 -0.03878513 -0.07676698
0.008773118 0.031656276 0.06332122 0.031006888 0.026168762 0.15259953 0.10306773 0.066806
-0.1604361 -0.058658563 0.03686393 -0.06986042 -0.024110401 0.06800856 -0.0011564766 0.00022039528
0.0036283296 0.039872963 0.10299555 0.15092792 -0.024722623 0.060155164 0.02044199 -0.038204968
0.063774906 -0.1634979 -0.089412555 -0.0077298614 0.08977793 0.046151824 -0.06647825 -0.085416585
-0.001619785 0.13430159 -0.040010408 -0.008828217 -0.08418236 0.19382687 0.053603992 0.07747674
0.012744537 -0.06488817 -0.047680277 0.1938146 0.032184564 0.11756268 -0.004145791 0.003545787
0.12910087 -0.02742606 -0.12742168 -0.16212131 0.03199978 -0.008561257 0.10974128 0.1468667
0.01702987 0.0437623 -0.010743565 -0.13910474 -0.17662579 -0.17284286 0.048232242 -0.13712114
0.100955285 -0.02529826 0.07179697 -0.062348973 0.0030054792 0.023104053 0.09546229 -0.021387074
-0.22212717 0.073686324 0.14980127 -0.011880984 -0.117875755 0.0061764023 -0.0014269999 -0.049377445
0.0097768055 -0.049853783 0.032312497 0.2285378 0.12504637 -0.009183287 0.034172993 -0.08337826
-0.014309122 8.934607e-05 -0.18443023 -0.060429227 -0.11805067 0.0774222 -0.10531886 0.070200734
0.09832767 -0.023028094 -0.08038066 0.027054407 -0.039935008 -0.003452296 -0.19612986 0.15883677
0.2017047 -0.084436595 0.03322143 0.15233177 0.14390856 -0.060176548 0.04635554 -0.015195789
0.025842901 0.09996955 0.05547897 0.07384491 0.06026877 0.09768326 0.25971806 -0.03884125
0.030935572 0.015389063 0.05877731 0.10019661 0.08870994 0.0027804945 0.04603423 0.028282948
0.00023527144 0.10543765 -0.023356006 0.06294852 -0.039513048 0.03269653 0.17614578 0.021350645
-0.031566 -0.056159116 -0.041685 -0.0078048166 0.11156464 -0.039992597 0.124857895 0.092512295
0.031674154 -0.03407146 0.015664162 -0.025355618 0.22818011 -0.050075352 0.110880725 -0.06563408
-0.07186432 0.037555587 0.083300725 -0.08044013 0.18326412 0.10663809 -0.01023895 -0.22185943
-0.011796568 -0.048997633 -0.027177304 -0.052585937 -0.07050094 0.008579824 0.036906328 0.04796181
00000000: 58b7 f73d 3fb0 1a3e 3197 97bd 2585 393d
00000010: 6787 603d 8653 c33d 989f a8bd 09a8 683d
00000020: 1956 b7bd 2306 d8bd dc25 42bd b80c 0fbe
00000030: 72eb a5bd 3ef5 303d 5ecc 053e 3be8 8b3d
00000040: c69d a9bd a78b 7b3d 120e cb3d 190a 28be
00000050: 7343 f13d 9f00 7b3d 55b0 87bc bdbc b7bb
00000060: 3e76 8a3c b5a3 d2bd d685 ab3e 1bb7 fc3d
00000070: 1f91 873b 06f7 973d 1179 123e dd10 043e
00000080: 91f1 35bc a7f6 f23d f005 1d3d dec3 6cbd
00000090: 4a4a 99bc e623 5e3c 89b0 333e 2bf8 fb3c
000000a0: 72dd a7bc ca21 143e bc45 993d 7917 9c3c
000000b0: d5e8 253d 4a7f a63d 367f e6bd 749d 853c
000000c0: 1f00 0d3e bf90 b03c 1c3d 343b 06c4 613d
000000d0: 32fc bcbb 0d5b c7bb 89be e83d 0b87 6dbd
000000e0: 21b3 0bbe 0414 34bd 7782 36be 3d56 533d
000000f0: 7615 a8bd 5823 be3c 7022 cfbd 3636 8e3d
00000100: 8085 d73d 87e7 9f3d 2790 a73b 9807 8dbd
00000110: 4e28 493d 3877 2dbe 4d68 663d 1769 c33d
00000120: 2885 a9bd c09f 0e3e 9e8a 613d 1bd2 6ebd
00000130: b5e7 8f3e dede 9b3d 44c1 753d 1fd2 e3bd
00000140: dbcf 3ebe 5437 213c 4845 e03d b035 b93d
00000150: b592 c43d cf58 0f3e 28dd 1ebd 0238 9dbd
00000160: 20bd 0f3c 03aa 013d 8eae 813d 2802 fe3c
00000170: df5f d63c 0d43 1c3e 2d15 d33d 96d1 883d
00000180: 5c49 24be f643 70bd a2fe 163d fb12 8fbd
00000190: 2d83 c5bc 1248 8b3d ea94 97ba e819 6739
000001a0: 45c9 6d3b d551 233d 55ef d23d d98c 1a3e
000001b0: 1987 cabc 4365 763d f675 a73c d07c 1cbd
000001c0: 6b9c 823d fe6b 27be ee1d b7bd c74a fdbb
000001d0: 7edd b73d b209 3d3d c025 88bd e4ee aebd
000001e0: f74e d4ba 5b86 093e f4e1 23bd 3aa4 10bc
000001f0: cd67 acbd 8d7a 463e dc8f 5b3d 20ac 9e3d
00000200: 76ce 503c 17e4 84bd 654c 43bd 5677 463e
00000210: f6d3 033d b4c4 f03d 6ad9 87bb 6f60 683b
00000220: 0533 043e 9eac e0bc d47a 02be 2103 26be
00000230: 3412 033d 8444 0cbc 09c0 e03d 3964 163e
00000240: 3a82 8b3c 1940 333d c705 30bc 7971 0ebe
00000250: 64dd 34be b8fd 30be 2c8f 453d 7c69 0cbe
00000260: a5c1 ce3d 4c3e cfbc 4a0a 933d a361 7fbd
00000270: 93f7 443b b644 bd3c bc81 c33d f233 afbc
00000280: 4e75 63be dbe8 963d 8165 193e 75a8 42bc
00000290: d868 f1bd 6b63 ca3b 2c0a bbba 0140 4abd
000002a0: e52e 203c 7b33 4cbd 1c5a 043d d005 6a3e
000002b0: 280c 003e 7f75 16bc fbf8 0b3d 39c2 aabd
000002c0: cf70 6abc 4e5f bb38 47db 3cbe a384 77bd
000002d0: 8dc4 f1bd 888f 9e3d 6ab1 d7bd 67c5 8f3d
000002e0: 0460 c93d 6aa5 bcbc 9e9e a4bd 34a1 dd3c
000002f0: e492 23bd ea3f 62bb 44d6 48be 1ba6 223e
00000300: ad8b 4e3e 18ed acbd 3213 083d dcfc 1b3e
00000310: c45c 133e af7b 76bd 4fdf 3d3d c2f7 78bc
00000320: 7eb4 d33c d6bc cc3d eb3d 633d 003c 973d
00000330: 63dc 763d 290e c83d c4f9 843e 0118 1fbd
00000340: 996c fd3c 6922 7c3c 7ac0 703d e133 cd3d
00000350: 8fad b53d f538 363b 648e 3c3d a4b1 e73c
00000360: 32b3 7639 b2ef d73d 1855 bfbc 27eb 803d
00000370: 6fd8 21bd ccec 053d 8f5f 343e 8ce7 ae3c
00000380: 5a4b 01bd 1a07 66bd e4bd 2abd 8cbf ffbb
00000390: 017c e43d 47cf 23bd 7fb5 ff3d 1677 bd3d
000003a0: c2bc 013d 848e 0bbd 2152 803c 96b6 cfbc
000003b0: 0ca8 693e d01b 4dbd 6f15 e33d 296b 86bd
000003c0: 9a2d 93bd e3d3 193d 9299 aa3d cbbd a4bd
000003d0: 97a9 3b3e 1265 da3d 45c1 27bc 1e2f 63be
000003e0: 6446 41bc beb1 48bd f0a2 debc 5a64 57bd
000003f0: cc62 90bd 6492 0c3c 172b 173d 9a73 443d

bias f4 [256]
-0.116649784 -0.015541637 -0.009014077 -0.055426054 -0.082731314 -0.042331297 -0.063407846 -0.1227963
-0.13518335 -0.19652672 -0.07435762 -0.050369382 -0.048798744 0.005331561 -0.13230217 -0.026994228
-0.10283452 0.021897858 -0.08954489 0.018464578 -0.044885844 0.035542496 -0.12458527 -0.022220558
-0.06673566 -0.08489044 -0.11627426 -0.03244806 -0.14431997 -0.044097908 -0.09136951 -0.13564979
0.003574733 -0.031769186 -0.06573724 0.000561789 -0.04524528 -0.14796618 -0.17348532 -0.031892836
-0.13252619 -0.06135406 -0.1793655 -0.2464393 -0.06989271 -0.067932054 -0.08438369 -0.059519317
-0.05549467 -0.15735607 -0.15030944 -0.06229072 -0.069688134 -0.017582713 0.0004952622 -0.10800175
-0.06974442 -0.0791383 -0.14473075 -0.082745634 -0.15153146 -0.11333835 -0.0815999 -0.09379506
-0.10003275 -0.107985586 -0.09854868 -0.10882076 0.019305686 -0.058384314 -0.09917592 -0.1108452
-0.13184996 -0.054177087 -0.0932797 0.034300044 -0.08562297 -0.10850478 -0.075143844 -0.11398912
-0.08129665 0.010596812 -0.088528976 -0.1578413 -0.23049317 -0.014009704 -0.15110153 -0.051637907
-0.12596823 -0.003811946 0.011397424 -0.07019638 0.01435484 0.012784441 -0.17900598 -0.14178589
-0.026391085 -0.005756816 -0.012732272 -0.024468122 -0.079879105 -0.09168645 -0.10886534 -0.14395675
0.0176404 -0.14039452 -0.027241493 -0.10860841 -0.12440924 -0.2563302 -0.0036004982 -0.109708175
0.000101554666 -0.13329424 0.016939605 -0.15965354 -0.06615415 -0.080123775 0.08869721 -0.02567069
-0.02322355 -0.06039731 -0.21461134 -0.03529005 -0.037696704 -0.12881847 -0.14989385 -0.08789973
-0.09304323 -0.122529455 -0.1886861 -0.11695949 -0.085004985 -0.005403124 -0.156773 -0.09985964
-0.12806293 -0.1640643 -0.086738594 -0.11254182 -0.036059327 -0.16537425 -0.121816695 -0.05861785
-0.076367706 -0.029697923 -0.08083426 -0.10115338 -0.11030444 -0.024935849 -0.12942784 -0.10798356
-0.095276356 -0.0715478 -0.09329672 0.027597615 -0.05808172 -0.19169003 -0.03035934 -0.024698988
-0.16214973 -0.0065621436 0.0093937805 -0.11590053 -0.041370887 -0.12362465 -0.022192417 0.027828528
0.03572137 -0.025811609 -0.0722335 0.035708927 -0.059894726 -0.033722512 -0.22499782 -0.014532258
-0.10160044 -0.08115542 -0.10753388 0.015588414 -0.085993096 -0.13955119 -0.09103178 0.0011223464
-0.020536663 -0.22257297 -0.0013887603 -0.027491685 -0.0435582 -0.07058812 -0.036498353 -0.12066764
-0.25119153 -0.10128399 -0.116615266 -0.1141174 -0.1629497 -0.14955275 -0.0043638763 -0.11522966
-0.046952136 0.041110948 -0.061919194 -0.0908229 -0.082414284 -0.0048356126 -0.10754156 -0.06924212
-0.10036427 -0.14804198 -0.092602216 -0.047955666 -0.035502292 -0.00027795418 -0.10954883 -0.10975263
-0.061173186 -0.10509516 -0.057090238 -0.17569947 -0.052215 -0.04381832 -0.13738267 -0.090546556
-0.022159625 -0.07451576 -0.108008556 -0.0043421397 0.038381066 -0.07472914 -0.049630195 -0.07537184
-0.028456984 -0.020725856 -0.058414083 -0.13601619 -0.18978167 -0.08686815 0.038123455 -0.030454993
-0.08925954 -0.039506894 -0.20287384 -0.09487505 -0.14938948 -0.034780927 -0.035728436 -0.08792566
-0.15837075 0.039756097 -0.056780785 -0.09509143 -0.009244917 -0.0365881 -0.057484463 -0.0051945643
00000000: 15e6 eebd 5aa2 7ebc c7af 13bc 6e06 63bd
00000010: 096f a9bd 9563 2dbd f9db 81bd a07c fbbd
00000020: 816d 0abe 4d3e 49be cf48 98bd 2050 4ebd
00000030: 31e1 47bd 60b4 ae3b 387a 07be 0023 ddbc
00000040: e89a d2bd 2363 b33c 5063 b7bd 0743 973c
00000050: 38da 37bd 0295 113d 9026 ffbd e307 b6bc
00000060: b5ac 88bd 0adb adbd 3321 eebd 42e8 04bd
00000070: 9dc8 13be 02a0 34bd f01f bbbd c7e7 0abe
00000080: 1146 6a3b 6820 02bd 3fa1 86bd 0645 133a
00000090: 1d53 39bd 7284 17be 23a6 31be 10a2 02bd
000000a0: f2b4 07be 654e 7bbd 97ab 37be 955a 7cbe
000000b0: e923 8fbd f61f 8bbd 5bd1 acbd 87ca 73bd
000000c0: 614e 63bd f321 21be b8ea 19be 8e24 7fbd
000000d0: a7b8 8ebd 9f09 90bc 7cd4 013a 0630 ddbd
000000e0: 2ad6 8ebd 4313 a2bd 4c34 14be 8b76 a9bd
000000f0: 102b 1bbe f01d e8bd d91d a7bd a017 c0bd
00000100: f8dd ccbd 8c27 ddbd e4d3 c9bd 6bdd debd
00000110: f526 9e3c 6424 6fbd bf1c cbbd cf02 e3bd
00000120: ad03 07be cbe8 5dbd 6d09 bfbd 347e 0c3d
00000130: 185b afbd c137 debd 04e5 99bd 2173 e9bd
00000140: dc7e a6bd 409e 2d3c ae4e b5bd 26a1 21be
00000150: 6706 6cbe f588 65bc 5cba 1abe 4582 53bd
00000160: d1fd 00be d7d1 79bb 43bc 3a3c 1fc3 8fbd
00000170: 9030 6b3c d575 513c 584d 37be 5230 11be
00000180: 1e32 d8bc aca3 bcbb 059b 50bc 5f71 c8bc
00000190: a897 a3bd 1bc6 bbbd cbf4 debd 6669 13be
000001a0: 9a82 903c 95c3 0fbe 8d29 dfbc 166e debd
000001b0: 46ca febd b63d 83be 56f6 6bbb aeae e0bd
000001c0: bff9 d438 497e 08be edc4 8a3c 387c 23be
000001d0: d47b 87bd ef17 a4bd e2a6 b53d 574b d2bc
000001e0: 503f bebc 2b63 77bd 13c3 5bbe 4d8c 10bd
000001f0: dc67 1abd fde8 03be c67d 19be c604 b4bd
00000200: 738d bebd b9f0 fabd ee36 41be 7588 efbd
00000210: 1817 aebd b00c b1bb 1a89 20be 3683 ccbd
00000220: ee22 03be 7900 28be 01a4 b1bd 537c e6bd
00000230: f2b2 13bd de57 29be 087b f9bd 4519 70bd
00000240: ac66 9cbd 0f49 f3bc 6f8c a5bd 8129 cfbd
00000250: 4be7 e1bd 4446 ccbc bb88 04be 7c26 ddbd
00000260: 4020 c3bd a787 92bd 5a12 bfbd 6514 e23c
00000270: 19e7 6dbd 644a 44be 27b4 f8bc 8855 cabc
00000280: 940a 26be 4007 d7bb 5fe8 193c 425d edbd
00000290: 8574 29bd ec2e fdbd dfcc b5bc a7f8 e33c
000002a0: 9250 123d de72 d3bc 28ef 93bd 8643 123d
000002b0: 2c54 75bd 9e20 0abd d465 66be b518 6ebc
000002c0: e413 d0bd d034 a6bd b93a dcbd 8c66 7f3c
000002d0: 261d b0bd 82e6 0ebe df6e babd b21b 933a
000002e0: 813c a8bc 2bea 63be 1007 b6ba 3e36 e1bc
000002f0: 156a 32bd 8190 90bd 4c7f 15bd 9820 f7bd
00000300: 2d9c 80be fb6d cfbd fcd3 eebd 62b6 e9bd
00000310: 49dc 26be 5b24 19be d9fe 8ebb 87fd ebbd
00000320: e250 40bd f463 283d fb9e 7dbd 5b01 babd
00000330: d2c8 a8bd 0f74 9ebb c03e dcbd d0ce 8dbd
00000340: c88b cdbd 5198 17be 3ba6 bdbd 296d 44bd
00000350: da6a 11bd 61ba 91b9 235b e0bd fdc5 e0bd
00000360: bc90 7abd 223c d7bd 74d7 69bd 90ea 33be
00000370: 65df 55bd d77a 33bd 0bae 0cbe 7970 b9bd
00000380: 1a88 b5bc b89b 98bd 9733 ddbd 8248 8ebb
00000390: 7735 1d3d 970b 99bd 0849 4bbd 8d5c 9abd
000003a0: 9f1e e9bc 45c9 a9bc 9b43 6fbd d447 0bbe
000003b0: 2056 42be eee7 b1bd 5727 1c3d c07c f9bc
000003c0: b5cd b6bd fbd1 21bd 29be 4fbe da4d c2bd
000003d0: 8ef9 18be 7276 0ebd fb57 12bd 5e12 b4bd
000003e0: f12b 22be 4ad7 223d f892 68bd 4cbf c2bd
000003f0: fe77 17bc 67dd 15bd d474 6bbd 2a37 aabb

weight f4 [128, 256]
-0.04095386 -0.052058946 -0.104265705 -0.03695098 -0.12020556 -0.07098324 0.019475847 -0.08195395
0.10213719 0.008872907 0.012181575 -0.008992513 0.10907492 -0.1132068 0.010868774 -0.0032877326
-0.045092933 0.026402596 -0.039912112 0.034664404 -0.042912953 -0.06739468 -0.0899053 -0.055477303
-0.037211753 0.005654436 -0.033878434 -0.0205697 -0.080939636 -0.087037936 -0.0028195898 -0.0035326136
-0.03200227 0.1213842 -0.0053139864 0.028964601 0.1229678 0.048561182 -0.047471825 -0.074107185
0.069748044 -0.0039007931 0.017065505 -0.077629305 -0.0009611325 0.00688084 -0.0075340336 0.06413146
0.17353144 -0.12701927 -0.020337123 0.005419312 0.0480577 0.015101421 -0.00771157 0.13960896
-0.004487681 0.16997503 -0.0015667718 -0.014344302 0.07787862 -0.09766613 -0.054825805 0.044421088
-0.09282759 0.0012239575 -0.036953576 0.009924131 -0.0101650385 -0.0023939817 -0.060192145 0.05443789
0.000696496 0.20558701 0.047902215 -0.04696321 -0.039653882 0.09330285 0.094186984 0.00076965813
-0.0388231 -0.064359985 0.010358689 0.03220328 0.063291565 0.039580774 0.04804888 -0.026293708
0.0071634008 -0.033773888 -0.008031866 -0.07840487 -0.114293166 0.056796852 0.042172614 0.03330936
0.03348461 -0.06817203 -0.17019817 -0.047876682 -0.04661533 -0.04493923 -0.013836136 0.066970736
0.01026157 -0.09213118 0.0026879455 -0.006497506 -0.08764801 0.019014662 0.08298487 -0.09080065
0.029909158 0.034905154 0.032837585 -0.029816631 -0.043658927 0.032791555 -0.003940162 0.023865791
0.04619629 0.007837605 -0.045240253 0.01913575 -0.1432404 -0.1281855 -0.06234473 -0.049365338
0.08564607 0.031420067 0.13967681 0.016170887 0.045323312 0.0021430282 0.06743958 0.09221026
0.025578296 0.022265626 0.030030347 -0.091076314 0.11972329 -0.07529295 -0.099618696 0.064397186
-0.06621051 -0.08447263 0.030633302 -0.029034145 0.013470846 0.122673 0.06923935 -0.03300667
-0.042590436 -0.09788124 -0.041596953 -0.109604664 -0.02437799 -0.10242239 0.01956539 -0.043842148
-0.018650802 0.10040471 -0.02329882 0.0051435516 0.08681706 0.0670797 -0.004687237 0.024842728
0.004525787 0.028645243 0.1193039 0.010657451 0.019321525 -0.13178019 -0.026743809 -0.029313326
0.06817285 -0.030437285 0.04232079 0.025204983 0.044371042 0.028519554 -0.12745672 0.08723988
0.0012222863 -0.11563637 -0.042861935 0.058590192 0.00019841957 0.017011566 -0.05089896 -0.03891439
-0.13446856 0.1334715 0.007621571 0.060988575 -0.049804922 0.024238998 0.07028939 0.026818238
-0.013097494 -0.06974676 -0.11185416 -0.1577289 -0.026620496 -0.025217785 0.01883065 -0.03876154
0.05606156 -0.016402964 -0.023579981 -0.1211296 -0.14673297 0.04431126 0.003986191 -0.027482156
0.041795064 -0.09772943 -0.026143244 -0.049646948 -0.02943057 0.04077341 0.30432963 0.06125005
-0.047910716 -0.004477177 0.028182233 -0.07350451 0.007786149 0.045769997 -0.040113065 0.108515054
-0.017315233 -0.036616977 -0.06369991 0.12452144 0.07207742 -0.009729827 -0.003114271 -0.0344319
0.040336158 0.09931134 -0.04708486 0.0030637644 0.022553114 0.07491244 -0.1256597 0.047817107
-0.135405 -0.01852147 0.04444421 -0.0529009 0.012339158 0.037566647 0.004164804 0.017343929
00000000: 3cbf 27bd c33b 55bd 4289 d5bd e959 17bd
00000010: 552e f6bd a95f 91bd d08b 9f3c 79d7 a7bd
00000020: 4e2d d13d ab5f 113c 3b95 473c 5555 13bc
00000030: ac62 df3d f7d8 e7bd f112 323c 0077 57bb
00000040: 5eb3 38bd 424a d83c e27a 23bd 43fc 0d3d
00000050: 7ec5 2fbd 3906 8abd 4520 b8bd 2b3c 63bd
00000060: 5a6b 18bd d948 b93b 1dc4 0abd ca81 a8bc
00000070: aec3 a5bd f240 b2bd dec8 38bb 6c83 67bb
00000080: d014 03bd 4898 f83d f320 aebb 2c47 ed3c
00000090: 8bd6 fb3d 17e8 463d d171 42bd 82c5 97bd
000000a0: 10d8 8e3d 73a4 7fbb f5cc 8b3c 1dfc 9ebd
000000b0: 83f4 7bba ab78 e13b 0ee0 f6bb 5b57 833d
000000c0: 3ab2 313e 5711 02be 0a9a a6bc 7c94 b13b
000000d0: 27d8 443d f36b 773c 56b1 fcbb a7f5 0e3e
000000e0: 660d 93bb ef0d 2e3e 235c cdba 5d04 6bbc
000000f0: d37e 9f3d 2e05 c8bd 0691 60bd e3f2 353d
00000100: 641c bebd 336d a03a a25c 17bd d398 223c
00000110: 438b 26bc 59e4 1cbb 0a8c 76bd 44fa 5e3d
00000120: 0e95 363a 6785 523e 1d35 443d 7f5c 40bd
00000130: 1c6c 22bd 9115 bf3d 1be5 c03d e2c2 493a
00000140: f904 1fbd 2bcf 83bd 7eb7 293c 96e7 033d
00000150: 029f 813d 731f 223d e7ce 443d e765 d7bc
00000160: f6ba ea3b 7d56 0abd 1698 03bc bc92 a0bd
00000170: 8912 eabd d1a3 683d 31bd 2c3d 656f 083d
00000180: 2927 093d c79d 8bbd 6e48 2ebe 571a 44bd
00000190: b7ef 3ebd 3312 38bd f6b0 62bc f427 893d
000001a0: 2520 283c 46af bcbd 3e28 303b 08e9 d4bb
000001b0: cd80 b3bd a3c4 9b3c f9f3 a93d b1f5 b9bd
000001c0: 0d04 f53c b5f8 0e3d b480 063d 0242 f4bc
000001d0: b4d3 32bd 7050 063d 791c 81bb 3182 c33c
000001e0: 5238 3d3d 4c69 003c d84d 39bd 94c2 9c3c
000001f0: 9dad 12be 0f43 03be 305d 7fbd 4f33 4abd
00000200: 3567 af3d 54b2 003d 7007 0f3e cf78 843c
00000210: f0a4 393d 0c72 0c3b c31d 8a3d bcd8 bc3d
00000220: 9389 d13c 6766 b63c 3402 f63c 3886 babd
00000230: 7c31 f53d 3133 9abd e304 ccbd ace2 833d
00000240: 6099 87bd fcff acbd b1f2 fa3c 04d9 edbc
00000250: d3b4 5c3c fb3b fb3d 5ccd 8d3d 0132 07bd
00000260: 4f73 2ebd f675 c8bd 9161 2abd 6978 e0bd
00000270: 5ab4 c7bc d4c2 d1bd 9947 a03c d393 33bd
00000280: 91c9 98bc fca0 cd3d 2bdd bebc 3d8b a83b
00000290: 25cd b13d 1561 893d 6597 99bb fa82 cb3c
000002a0: 0e4d 943b 6ea9 ea3c 9a55 f43d 979c 2e3c
000002b0: 2d48 9e3c 63f1 06be d515 dbbc 8022 f0bc
000002c0: 359e 8b3d 9d57 f9bc 9158 2d3d ae7a ce3c
000002d0: 69be 353d d7a1 e93c 0484 02be d2aa b23d
000002e0: 1f35 a03a c3d2 ecbd ff8f 2fbd 45fc 6f3d
000002f0: d90e 5039 d75b 8b3c 6e7b 50bd b264 1fbd
00000300: 20b2 09be c1ac 083e 5fbe f93b 28cf 793d
00000310: 3f00 4cbd dd90 c63c e2f3 8f3d ecb1 db3c
00000320: df96 56bc 64d7 8ebd cb13 e5bd af83 21be
00000330: 3a13 dabc 8795 cebc bc42 9a3c 6cc4 1ebd
00000340: cea0 653d 825f 86bc ce2a c1bc cc12 f8bd
00000350: 2b41 16be b97f 353d 989e 823b 4222 e1bc
00000360: 4d31 2b3d 5e26 c8bd 5b2a d6bc 995a 4bbd
00000370: 6118 f1bc 0502 273d 18d1 9b3e 55e1 7a3d
00000380: 073e 44bd 48b5 92bb 6dde e63c 8889 96bd
00000390: f422 ff3b 5279 3b3d 994d 24bd 243d de3d
000003a0: add8 8dbc affb 15bd 1975 82bd 1905 ff3d
000003b0: 549d 933d da69 1fbc cc18 4cbb 7708 0dbd
000003c0: 8737 253d be63 cb3d 0edc 40bd 70c9 483b
000003d0: 4fc1 b83c b16b 993d f0ac 00be dfdb 433d
000003e0: 9ca7 0abe 56ba 97bc 220b 363d 9dae 58bd
000003f0: 2e2a 4a3c 7cdf 193d e878 883b db14 8e3c

bias f4 [128]
-0.029323766 -0.058995686 -0.08736363 -0.031419124 -0.050818183 -0.09315496 -0.019851053 -0.0062046396
-0.0016564054 -0.017109329 -0.05863412 -0.0460463 -0.10157976 -0.17238349 0.013815285 -0.059753448
-0.09373846 -0.10220512 -0.18231072 -0.015810514 -0.06914044 -0.06855962 -0.008295296 -0.091119125
-0.013456329 -0.069268696 -0.00035668942 0.03863165 -0.115458235 -0.036854398 -0.08707178 -0.05330402
-0.031316046 -0.065645106 -0.0574668 -0.008300035 -0.11551547 -0.062057965 -0.05354942 -0.19538653
0.01586415 -0.0981325 -0.0022917807 -0.09960067 -0.040070184 -0.042073037 -0.13952501 -0.041246504
-0.124215275 0.0118407905 -0.041572396 -0.045066185 -0.082514405 -0.04303157 -0.18919443 -0.060757548
0.0032188368 -0.074691154 -0.124785624 -0.11120422 -0.026567679 -0.057978354 -0.06108613 -0.049342204
-0.08743045 -0.10086506 0.014537511 -0.013943494 0.028643224 -0.038472213 -0.033440404 -0.047205016
-0.04432187 -0.034596916 -0.0703855 -0.05710923 -0.042313546 -0.03300779 -0.03990591 -0.10296587
-0.06271205 -0.02440326 -0.011769525 -0.058188144 -0.12437378 -0.218896 -0.15917057 -0.06913974
-0.047237966 -0.022360377 -0.059312668 -0.031135296 -0.057069913 0.01259134 -0.15019344 0.016734445
-0.048612922 -0.04287094 -0.01400145 0.015338518 0.027246358 0.00066280976 -0.10559234 0.018780142
-0.042728916 -0.11239437 -0.01780345 -0.010344019 -0.02948721 -0.023273878 -0.034084987 -0.010938462
-0.022833586 -0.042661056 -0.0143049825 -0.06593602 -0.13353299 -0.0074388706 -0.098605976 -0.052384924
0.025559617 -0.07119725 -0.10191891 0.0073802993 -0.2020931 -0.09734517 -0.04030324 -0.06542989
00000000: 6538 f0bc 76a5 71bd b4eb b2bd 57b1 00bd
00000010: ba26 50bd 07c8 bebd ad9e a2bc 4a50 cbbb
00000020: be1b d9ba dd28 8cbc 552a 70bd 0c9b 3cbd
00000030: 0d09 d0bd 4c85 30be 8159 623c 08c0 74bd
00000040: f3f9 bfbd eb50 d1bd a9af 3abe 0d85 81bc
00000050: 8199 8dbd fc68 8cbd fee8 07bc aa9c babd
00000060: ef77 5cbc bfdc 8dbd 0b02 bbb9 393c 1e3d
00000070: 5e75 ecbd a3f4 16bd b052 b2bd 5155 5abd
00000080: 4145 00bd f170 86bd 4f62 6bbd dffc 07bc
00000090: 6093 ecbd 7e30 7ebd a356 5bbd 6813 48be
000000a0: 89f5 813c b1f9 c8bd b331 16bb 70fb cbbd
000000b0: a220 24bd c754 2cbd a5df 0ebe 18f2 28bd
000000c0: 9464 febd e0ff 413c d147 2abd 5297 38bd
000000d0: 50fd a8bd df41 30bd 2fbc 41be e8dc 78bd
000000e0: 1ff3 523b adf7 98bd 9b8f ffbd 0abf e3bd
000000f0: 76a4 d9bc b67a 6dbd 7335 7abd 0d1b 4abd
00000100: bc0e b3bd 5792 cebd be2e 6e3c 4173 64bc
00000110: 32a5 ea3c 0a95 1dbd cef8 08bd 0c5a 41bd
00000120: d98a 35bd 7fb5 0dbd 4626 90bd 5eeb 69bd
00000130: f850 2dbd 2d33 07bd 6174 23bd c5df d2bd
00000140: 2d6f 80bd 58e9 c7bc f7d4 40bc b156 6ebd
00000150: aeb7 febd 4626 60be 9cfd 22be 2399 8dbd
00000160: 997c 41bd 1c2d b7bc d7f1 72bd 730f ffbc
00000170: 24c2 69bd e84b 4e3c 4fcc 19be ad16 893c
00000180: 581e 47bd 7099 2fbd 5666 65bc 684e 7b3c
00000190: c133 df3c 69c0 2d3a cc40 d8bd d0d8 993c
000001a0: 8404 2fbd 052f e6bd 8ad8 91bc f679 29bc
000001b0: 298f f1bc dca8 bebc b39c 0bbd 3c37 33bc
000001c0: 800d bbbc 5cbd 2ebd 725f 6abc 7709 87bd
000001d0: dfbc 08be c5c1 f3bb eef1 c9bd 9391 56bd
000001e0: 6762 d13c ddcf 91bd ddba d0bd 70d6 f13b
000001f0: 7ef1 4ebe e85c c7bd 0315 25bd 1b00 86bd

weight f4 [12, 128]
-0.04052066 -0.025630921 -0.0046775816 -0.025706775 0.048737127 -0.0017291247 0.02029082 0.011813269
-0.05045002 0.031128084 0.03201732 0.01852408 -0.004175649 0.009379484 -0.038563788 0.042462192
0.015664747 -0.024722882 -0.012658972 -0.029624688 0.04794656 -0.03402168 -0.11215145 -0.008262133
-0.07672082 -0.0050496235 -0.036176622 0.00073759124 0.06818593 -0.017697051 0.054330464 -0.057451732
0.010074439 0.004933272 0.104060724 -0.054127168 0.00030752664 -0.07345421 -0.09973945 0.032887157
0.020102948 0.03441691 0.052946743 0.023151156 -0.024633156 0.036607686 -0.07126188 0.022785388
-0.08577916 0.033845626 0.06910191 -0.06440413 0.058394495 0.010578098 -0.08551608 0.014534295
0.03953736 -0.03612972 -0.01260488 -0.038075887 -0.04058588 0.021265026 0.019884264 0.013316685
-0.03275831 0.0057369075 0.034099188 0.0322658 0.029443186 3.3205706e-05 -0.06463452 -0.034306098
0.05175045 -0.058385376 0.047182254 -0.041124936 -0.016896473 -0.021681126 -0.006874566 0.014919871
0.027975377 0.059731085 -0.021863759 -0.0006159603 -0.05033672 0.021477232 -0.02374441 0.018233234
0.01927435 0.064958215 -0.037446998 0.015214664 -0.09376756 -0.015614913 0.094535045 -0.0034843485
0.024151318 0.0068298425 0.017662263 -0.03483098 -0.03741348 0.06497656 -0.009607317 -0.034816645
-0.016405681 -0.053214725 0.0786283 -0.0031893656 0.023161078 -0.025890253 0.021981372 0.0019169123
-0.001914636 -0.015455973 0.012143693 0.0167885 -0.00042828062 0.056407887 -0.083065316 -0.0189055
0.01907744 -0.04003505 0.017871883 -0.022124846 -0.07597305 -0.06269578 -0.006302513 -0.059085246
-0.07058483 0.05190618 0.0650607 -0.031341486 0.014755952 -0.0087659815 -0.0051583014 0.09915638
0.060130235 0.024693672 -0.0726191 -0.0020569356 -0.024057638 -0.07376057 0.027104013 0.012183457
0.054021332 -0.03686992 -0.043473773 0.028156484 0.0024614981 -0.0057996027 0.04830725 -0.04984714
-0.008560676 0.003793945 0.021545893 -0.07552366 0.07749568 -0.0050222604 -0.07400603 -0.09055093
0.028255073 0.03782948 0.096501805 0.008881179 0.090542704 -0.02594055 0.098902725 -0.027101275
0.116646685 -0.02464548 0.034278817 -0.11376195 -0.032204933 -0.0136557715 0.053765148 -0.0024781749
-0.010222297 0.0059082494 0.11903827 0.0354781 -0.020968802 -0.04104318 -0.013231171 0.056692604
0.015246648 0.048523232 0.03351574 0.05718985 -0.023481427 -0.018532133 -0.01173141 -0.10419905
0.10700161 0.028334353 -0.007944468 -0.052809536 0.0066492977 -0.0817895 0.024644699 0.011160016
0.007767941 0.06112865 0.015832039 -0.061700713 0.07163754 0.047182895 -0.014063046 0.07599691
0.022448631 -0.042980637 -0.037419453 0.09120716 -0.026484653 0.010647043 -0.009265813 0.016291808
0.03069955 0.0977971 -0.101237185 -0.022309683 -0.11860979 -0.037921753 0.028765712 0.03106967
-0.021916896 -0.054105517 -0.016562674 0.056906167 -0.012675073 0.04547912 -0.079298496 -0.01364831
-0.004272483 -0.023945894 0.021374261 0.018801376 0.012313705 -0.025996301 0.022428002 0.00088074844
-0.011430361 -0.062452134 0.035485033 0.0066403584 -0.0059299315 0.038259096 0.06549297 0.023843234
0.054889288 0.05646363 -0.004653198 -0.025592191 -0.07308734 -0.053496968 -0.002461239 0.13214085
00000000: fef8 25bd f0f7 d1bc 6646 99bb 0497 d2bc
00000010: 95a0 473d cca3 e2ba ef38 a63c 718c 413c
00000020: aea4 4ebd 5300 ff3c 9824 033d d0bf 973c
00000030: e2d3 88bb 68ac 193c 10f5 1dbd d6ec 2d3d
00000040: 5b53 803c a487 cabc 9467 4fbc 79af f2bc
00000050: 9d63 443d 515a 0bbd a9af e5bd e65d 07bc
00000060: ce1f 9dbd 5077 a5bb f02d 14bd e95a 413a
00000070: 11a5 8b3d 68f9 90bc 9f89 5e3d 8252 6bbd
00000080: 430f 253c 49a7 a13b ca1d d53d 73b4 5dbd
00000090: 873b a139 296f 96bd 3244 ccbd afb4 063d
000000a0: f0ae a43c bff8 0c3d afde 583d 7ea7 bd3c
000000b0: 79cb c9bc f1f1 153d c0f1 91bd 6ca8 ba3c
000000c0: fcac afbd b6a1 0a3d 4d85 8d3d 50e6 83bd
000000d0: 112f 6f3d c24f 2d3c 0e23 afbd 4021 6e3c
000000e0: edf1 213d c2fc 13bd b384 4ebc 76f5 1bbd
000000f0: 613d 26bd fe33 ae3c 53e4 a23c 3a2e 5a3c
00000100: 942d 06bd abfc bb3b 97ab 0b3d 2529 043d
00000110: d632 f13c 5b46 0b38 1a5f 84bd 8d84 0cbd
00000120: 48f8 533d 8125 6fbd 2e42 413d 9f72 28bd
00000130: 796a 8abc 9e9c b1bc 0a44 e1bb 7a72 743c
00000140: 9e2c e53c 95a8 743d a01b b3bc 6578 21ba
00000150: e02d 4ebd 05f1 af3c a383 c2bc dd5d 953c
00000160: 3ee5 9d3c d008 853d 0662 19bd ed46 793c
00000170: 3509 c0bd b1d5 7fbc 979b c13d ab59 64bb
00000180: fcd8 c53c dfcc df3b 73b0 903c eeaa 0ebd
00000190: e13e 19bd 6e12 853d 0268 1dbc e69b 0ebd
000001a0: 3565 86bc aff7 59bd e007 a13d ad04 51bb
000001b0: 4dbc bd3c cc17 d4bc 4712 b43c e740 fb3a
000001c0: 86f4 faba 0d3b 7dbc 57f6 463c 0988 893c
000001d0: da8a e0b9 f50b 673d 261e aabd b5df 9abc
000001e0: 4b48 9c3c cbfb 23bd 0e68 923c 2a3f b5bc
000001f0: c297 9bbd a566 80bd 5085 cebb 5f03 72bd
00000200: c88e 90bd 939b 543d 8b3e 853d ee5f 00bd
00000210: f3c2 713c 319f 0fbc f806 a9bb 8012 cb3d
00000220: 1f4b 763d 624a ca3c 53b9 94bd a7cd 06bb
00000230: 8614 c5bc c80f 97bd 3c09 de3c 1f9d 473c
00000240: 7945 5d3d ea04 17bd 8e11 32bd 6da8 e63c
00000250: 1651 213b 980a bebb d3dd 453d 842c 4cbd
00000260: 1442 0cbc d6a3 783b 0381 b03c 26ac 9abd
00000270: 0eb6 9e3d c691 a4bb 7990 97bd c472 b9bd
00000280: 2f77 e73c 16f3 1a3d bda2 c53d 5d82 113c
00000290: 746e b93d 4781 d4bc 838d ca3d 7e03 debc
000002a0: 75e4 ee3d 51e5 c9bc f267 0c3d 06fc e8bd
000002b0: 52e9 03bd 75bc 5fbc d838 5c3d e068 22bb
000002c0: 6c7b 27bc fd99 c13b 56ca f33d 7c51 113d
000002d0: c4c6 abbc e51c 28bd 8ec7 58bc 8136 683d
000002e0: 14cd 793c 4cc0 463d cd47 093d e73f 6a3d
000002f0: 1f5c c0bc b3d0 97bc 1a35 40bc 5066 d5bd
00000300: a923 db3d 721d e83c 8429 02bc d04e 58bd
00000310: 5ae2 d93b 4181 a7bd aee3 c93c 80d8 363c
00000320: 368a fe3b 0962 7a3d 31b2 813c e3b9 7cbd
00000330: b4b6 923d da42 413d b168 66bc 45a4 9b3d
00000340: 31e6 b73c 770c 30bd 2445 19bd d2ca ba3d
00000350: 58f6 d8bc ef70 2e3c a3cf 17bc 6676 853c
00000360: 9f7d fb3c d949 c83d 7155 cfbd ccc2 b6bc
00000370: b1e9 f2bd d753 1bbd 12a6 eb3c d285 fe3c
00000380: 108b b3bc bf9d 5dbd 72ae 87bc 7116 693d
00000390: 1cab 4fbc 5048 3a3d 4067 a2bd 299d 5fbc
000003a0: 2f00 8cbb 2e2a c4bc 1319 af3c 5805 9a3c
000003b0: 6cbf 493c 32f6 d4bc eeba b73c 07e2 663a
000003c0: 6946 3bbc cfcd 7fbd c158 113d 5d97 d93b
000003d0: df4f c2bb 92b5 1c3d 2e21 863d e352 c33c
000003e0: 97d3 603d 6846 673d db79 98bb b7a6 d1bc
000003f0: d1ae 95bd a31f 5bbd bd4c 21bb ee4f 073e

bias f4 [12]
0.09331093 0.26691222 -0.15558752 0.10286025 -0.17285818 -0.16681002 0.023845904 0.19049601
-0.20521872 0.011285522 0.16198248 -0.22742365
00000000: cd19 bf3d b8a8 883e 5652 1fbe 65a8 d23d
00000010: bc01 31be 3fd0 2abe 7c58 c33c 6311 433e
00000020: db24 52be e9e6 383c bcde 253e bfe1 68be
